1.REINFORCE/models/model_0.22284.pth (torch, 2880 bytes, 4 tensors)

fc1.weight f4 [32, 2]
0	0xbed7c796	-0.4214446
1	0x3f598e1a	0.84982455
2	0xbe8b8c73	-0.27255592
3	0xbdc63910	-0.096788526
4	0x3f499920	0.78749275
5	0xbe5a2107	-0.21301661
6	0xbf2866c8	-0.6578183
7	0xbee52542	-0.44754988
8	0x3ec29276	0.38002366
9	0xbe6f5afa	-0.23374549
10	0xbf1755ef	-0.591155
11	0xbea6e784	-0.32598507
12	0xbec4e66b	-0.38457045
13	0xbe457996	-0.19284663
14	0x3f1285dc	0.57235503
15	0x3e5cd9ce	0.21567461
16	0x3f2a56bb	0.6653859
17	0xbe06b320	-0.13154268
18	0x3eaef29e	0.34169477
19	0x3eb214f2	0.34781605
20	0xbebda790	-0.37041903
21	0xbe36f3e0	-0.17866468
22	0x3eaad632	0.33366543
23	0xbf1bf6f4	-0.60923696
24	0x3ec8798d	0.39155236
25	0x3e8e0d07	0.27744314
26	0x3f192007	0.59814495
27	0xbeb4e9b6	-0.35334557
28	0x3e404299	0.18775405
29	0xbe884a4a	-0.26619178
30	0xbf066ffd	-0.5251463
31	0x3ec00687	0.3750498
32	0x3f1de28f	0.61673826
33	0x3ebf6f4a	0.37389594
34	0x3f27e205	0.65579253
35	0xbc692f52	-0.014232473
36	0x3b26e408	0.0025465507
37	0xbf61c503	-0.8819124
38	0xbe920d0e	-0.28525585
39	0xbebf068a	-0.37309676
40	0xbefe3f1c	-0.49657524
41	0xbf699afd	-0.9125212
42	0x3d905520	0.07047486
43	0x3ca48120	0.020081103
44	0xbf3775fd	-0.7166441
45	0x3f25b941	0.647358
46	0x3d13380f	0.035942134
47	0xbf15a641	-0.5845681
48	0xbf164a03	-0.5870668
49	0x3f5c42e5	0.8603957
50	0xbe8afca7	-0.27145883
51	0xbf182e50	-0.5944567
52	0x3e2782f0	0.16358542
53	0x3e6c5034	0.2307747
54	0xbee7f4f4	-0.45304072
55	0x3eccee2c	0.4002546
56	0x3f1e9dc4	0.6195948
57	0x3d88c890	0.06678879
58	0xbdecbe04	-0.1155968
59	0x3e98dca0	0.29855824
60	0x3edc330e	0.43007702
61	0xbcc853a0	-0.024453938
62	0xbe8956a3	-0.2682391
63	0xbf349764	-0.70543504

fc1.bias f4 [32]
0	0xbe2fbc82	-0.17161754
1	0xbf340246	-0.7031597
2	0x3f1003b6	0.5625566
3	0xbf164382	-0.5869676
4	0x3d0f9ac0	0.03505969
5	0x3ef4cc91	0.47812322
6	0x3df62c91	0.12020219
7	0x3e3279ea	0.17429319
8	0xbf2be199	-0.6714111
9	0xbea3687e	-0.3191566
10	0x3ec37149	0.38172367
11	0xbf1a8aae	-0.6036786
12	0x3f02b7ef	0.5106191
13	0x3eaa4923	0.33258924
14	0x3ead9816	0.33905095
15	0xbd8bfaa2	-0.06834914
16	0x3e3f1309	0.18659605
17	0x3f2a325a	0.6648308
18	0x3e27c475	0.16383536
19	0x3e7947d5	0.24343808
20	0x3ef99ac8	0.487509
21	0xbe8f1989	-0.2794917
22	0x3f1bf611	0.6092234
23	0x3e45386b	0.19259803
24	0x3ee33e8c	0.44383657
25	0xbeced0ee	-0.40393776
26	0xbec33e9e	-0.3813371
27	0x3de4b862	0.11167981
28	0x3eeb49b0	0.45954657
29	0x3ddfccd6	0.10927741
30	0xbf2d2d7d	-0.67647535
31	0x3d942263	0.07233121

fc2.weight f4 [3, 32]
0	0xbddff194	-0.10934749
1	0xbe1ba420	-0.15199327
2	0xbcf4c0bc	-0.02987706
3	0x3d1de8c8	0.038552076
4	0xbe3502e1	-0.1767688
5	0xbda7615c	-0.08172867
6	0x3db9264d	0.090405084
7	0x3da6acd9	0.08138437
8	0x3db9279e	0.090407595
9	0xbdac4182	-0.08410932
10	0x3c937e76	0.018004637
11	0xbe0e7b3b	-0.13914196
12	0xbd88c4b2	-0.06678142
13	0xbd384aa1	-0.044993047
14	0x3cf6b762	0.03011674
15	0xbe2712d7	-0.1631578
16	0xbd889a2a	-0.066700295
17	0x3dbfe7ba	0.0937037
18	0x3e0498bd	0.1294889
19	0x3dbbd860	0.0917213
20	0x3dbd08db	0.09230205
21	0x3e01c2e3	0.12672
22	0xbe23cb8c	-0.15995616
23	0x3d1672fc	0.03673075
24	0x3db98d42	0.09060146
25	0x3dc81892	0.097703114
26	0x3d327ed4	0.043577984
27	0xbe1b443b	-0.15162747
28	0x3e0d5ea6	0.13805637
29	0xbc64ebbe	-0.013972221
30	0x3dd1c542	0.10242702
31	0xbcace152	-0.021103535
32	0xbdcac97b	-0.099017106
33	0xbd2ffd20	-0.04296601
34	0x3d3a297c	0.04544972
35	0xbe1b1ee9	-0.1514851
36	0xbc58a110	-0.013221994
37	0x3dd49867	0.10380631
38	0x3e06340a	0.13105789
39	0xbd9a3d78	-0.075312555
40	0xbe1a8892	-0.1509116
41	0x3db8001a	0.08984394
42	0xbe19302a	-0.1495978
43	0xbdc4c84c	-0.09608516
44	0xbe3176c6	-0.17330465
45	0x3d4422d3	0.047884773
46	0xbcd1f877	-0.025631173
47	0xbddea6ae	-0.108716354
48	0x3b8eb872	0.0043554837
49	0xbdc76f14	-0.09737983
50	0x3e0942b2	0.13404348
51	0x3db6c063	0.089234136
52	0xbd98d3bd	-0.07462261
53	0x3d716fc8	0.058944494
54	0xbe0b8026	-0.13623103
55	0x3c9c8e7d	0.019110912
56	0xbe37dbe6	-0.17954978
57	0xbc9853b0	-0.018594593
58	0x3d39d7d8	0.04537186
59	0x3d6bfe41	0.057615522
60	0xbe1cdbda	-0.15318242
61	0xbbd3d515	-0.0064646103
62	0xbd822035	-0.06353799
63	0xbe13149a	-0.14363328
64	0x3c648901	0.01394868
65	0xbe15b563	-0.14619975
66	0xbd844702	-0.06458856
67	0xbe261874	-0.16220266
68	0xbe0f34ac	-0.13984936
69	0x3e821399	0.25405577
70	0x3e684b2a	0.22684923
71	0xbdc4c4d2	-0.09607853
72	0xbe0c7346	-0.13715848
73	0x3e087bd3	0.13328485
74	0xbd80a602	-0.062816635
75	0xbd269788	-0.040671855
76	0x3db481c1	0.08813811
77	0x3db99a62	0.09062649
78	0x3e1a98c6	0.15097341
79	0x3d79d8aa	0.060997643
80	0xbde753f7	-0.11295312
81	0x3e6d661f	0.23183487
82	0x3c9d6ca4	0.019216843
83	0x3c940b0a	0.01807167
84	0xbd1b219f	-0.03787386
85	0xbd5eeb78	-0.05442378
86	0x3e453066	0.19256744
87	0x3d2ace1d	0.04170047
88	0x3e6793ce	0.22614977
89	0x3e16f389	0.14741339
90	0x3dfc2e7a	0.12313552
91	0x3da26ecf	0.07931291
92	0x3e573816	0.21017489
93	0x3dc6220c	0.09674463
94	0xbd1848e4	-0.03717889
95	0xbd84be2f	-0.06481587

fc2.bias f4 [3]
0	0xbd50f676	-0.051016293
1	0x3d616d18	0.05503568
2	0x3cdaa7ca	0.026691336
