1.REINFORCE/models/model_0.17782.pth (torch, 2880 bytes, 4 tensors)

fc1.weight f4 [32, 2]
0	0x3d772070	0.06033367
1	0xbe663b2c	-0.2248351
2	0x3e659d3c	0.22423261
3	0xbe110490	-0.14161897
4	0xbc9d53ed	-0.019205058
5	0x3aa7f4ce	0.0012814046
6	0x3e1edef1	0.15514733
7	0xbdc80427	-0.09766417
8	0xbe08d9a7	-0.13364278
9	0x3d1ac77b	0.037787896
10	0xbebbe2db	-0.36696514
11	0xbee55158	-0.44788623
12	0x3f12ef84	0.5739672
13	0x3f31e0ca	0.69483626
14	0x3e33f054	0.17572147
15	0xbf18f708	-0.5975194
16	0x3ee2dd7e	0.4430961
17	0xbedc9572	-0.43082768
18	0xbe03a0c0	-0.1285429
19	0xbe69020c	-0.22754687
20	0xbe74bea2	-0.23900846
21	0x3dbb4a60	0.09145045
22	0xbeb7ed7c	-0.35923374
23	0x3ea1cac2	0.31600004
24	0xbe0ea0d3	-0.13928537
25	0x3e11d207	0.14240275
26	0xbe77dbe4	-0.24204975
27	0xbee2c887	-0.44293615
28	0x3f158141	0.5840035
29	0x3e88ed18	0.26743388
30	0x3f0a6acb	0.54069203
31	0xbdd60100	-0.104494095
32	0xbf180bbc	-0.59392905
33	0xbf089b35	-0.5336183
34	0x3f228bdb	0.6349465
35	0x3d41bbb0	0.047298133
36	0x3be2dff6	0.006923671
37	0xbe722219	-0.2364582
38	0xbec80ed9	-0.39073828
39	0x3f1628de	0.5865611
40	0x3f138c19	0.5763565
41	0x3e68a164	0.22717816
42	0xbe8a8445	-0.2705404
43	0x3da2bb0a	0.07945831
44	0xbf1c9ce7	-0.61176914
45	0xbf18a75b	-0.59630364
46	0xbe479afc	-0.19492716
47	0xbe815e1c	-0.25267112
48	0xbf21b79e	-0.631708
49	0xbdd2ae5f	-0.10287165
50	0xbe61762a	-0.22017732
51	0x3eccb114	0.3997885
52	0xbea55849	-0.3229392
53	0xbe1b6692	-0.15175846
54	0x3e8f4b38	0.27987075
55	0xbeecd443	-0.46255693
56	0x3e6ce5d1	0.23134543
57	0x3e6c77b5	0.2309254
58	0xbdc6f942	-0.09715511
59	0xbec4f244	-0.38466084
60	0xbe9d3b98	-0.3070953
61	0x3f2127b1	0.6295119
62	0xbbe14880	-0.0068750978
63	0x3eb6c995	0.3570067

fc1.bias f4 [32]
0	0x3f21956f	0.6311864
1	0x3cc36ba0	0.02385503
2	0x3e4e89bb	0.20169728
3	0x3e9af9ff	0.30268857
4	0x3eefa2a1	0.46803764
5	0x3ebe299c	0.3714112
6	0x3e2ea640	0.17055607
7	0x3ebb9c63	0.3664275
8	0xbe838fba	-0.25695592
9	0xbf0ce206	-0.55032384
10	0xbe0a8052	-0.13525513
11	0x3d8a0000	0.06738281
12	0x3ea30182	0.31837088
13	0xbf2d531b	-0.67704934
14	0xbe266d88	-0.1625272
15	0xbdb76868	-0.08955461
16	0x3d354ed9	0.044264648
17	0xbebc4145	-0.36768547
18	0x3f1b4ffe	0.60668933
19	0x3f246f34	0.6423218
20	0xbf2af0d1	-0.66773707
21	0xbe1d4d90	-0.15361619
22	0xbeb2bea2	-0.34911066
23	0xbf2aa1e0	-0.6665325
24	0xbd659c71	-0.056057397
25	0xbd9ad479	-0.07560057
26	0x3cfb4af7	0.030675394
27	0xbd1eb030	-0.038742244
28	0x3ec78660	0.38969707
29	0x3f22a97c	0.6353986
30	0x3d90d932	0.07072677
31	0x3e4f4300	0.20240402

fc2.weight f4 [3, 32]
0	0xbde5e8dd	-0.11226056
1	0xbe1e3ab4	-0.15452081
2	0x3d80437e	0.06262873
3	0xbe202c23	-0.15641837
4	0x3d966f47	0.07345443
5	0x3e26c617	0.16286503
6	0xbdf40ea5	-0.11916856
7	0xbdd74c1a	-0.10512562
8	0xbd940b66	-0.072287366
9	0x3dc7629e	0.097356066
10	0x3d9a89e3	0.07545831
11	0xbd0cbf7d	-0.034362305
12	0xbd8d03ce	-0.06885491
13	0x3db7bad2	0.0897118
14	0x3df1fb1a	0.11815472
15	0xbe344076	-0.17602715
16	0xbdb9f84e	-0.090805635
17	0xbdf49cca	-0.11943968
18	0xbe29408d	-0.1652853
19	0x3de1c284	0.11023429
20	0xbe0e8056	-0.13916144
21	0xbe31a304	-0.17347342
22	0x3bdc4e3c	0.0067231935
23	0xbe2529ad	-0.1612918
24	0xbd9c8eb3	-0.07644405
25	0xbd6e4e42	-0.0581801
26	0x3e038afd	0.12845989
27	0x3e1f80db	0.15576498
28	0xbde42bd1	-0.1114117
29	0xbe197753	-0.14986925
30	0xbdbc158e	-0.09183799
31	0xbe36a683	-0.17836957
32	0xbe089b68	-0.13340533
33	0xbd9a8f77	-0.07546895
34	0x3e0620cf	0.13098453
35	0x3e03617b	0.12830155
36	0xbe1533f3	-0.14570598
37	0xbe03f0ef	-0.12884878
38	0xbe28fb73	-0.1650217
39	0xbd6f396c	-0.05840437
40	0xbd3530fc	-0.04423617
41	0xbdd09bcc	-0.10185966
42	0x3e31003a	0.17285243
43	0x3daaf5df	0.083476774
44	0xbdb1d10c	-0.08682451
45	0xbd903c9e	-0.07042812
46	0x3cd1f240	0.02562821
47	0x3e18877d	0.14895435
48	0x3d0fb8a7	0.035088208
49	0xbe274226	-0.16333827
50	0x3d5af5ea	0.05345718
51	0x3d18d994	0.037316874
52	0xbe2ad698	-0.16683424
53	0xbe1d211e	-0.15344664
54	0x3e1acfca	0.15118328
55	0x3de8ab9e	0.113608584
56	0x3dc0c946	0.0941339
57	0x3e1e41f6	0.1545485
58	0x3cb50a8e	0.02209976
59	0xbe33a89f	-0.17544793
60	0x3dc9beb1	0.098508246
61	0xbc14d961	-0.00908503
62	0xbe150203	-0.14551549
63	0x3d3155f7	0.043294873
64	0xbe1b3bf6	-0.15159592
65	0xbd59e63e	-0.05319809
66	0x3c566aa5	0.0130869495
67	0x3e1288b1	0.14309956
68	0x3d9b08ee	0.075700626
69	0x3e33ac91	0.17546298
70	0x3e0778db	0.13229696
71	0x3ddd337b	0.10800835
72	0x3e1fe0f7	0.15613161
73	0xbdebc9ac	-0.11513075
74	0xbde06915	-0.10957543
75	0xbe18e804	-0.14932257
76	0xbcf76734	-0.030200578
77	0x3e2d2293	0.1690772
78	0x3dc346da	0.09534998
79	0x3e259e31	0.16173626
80	0xbc9ceafb	-0.019155016
81	0x3dd0350a	0.101663664
82	0xbdbc85c8	-0.09205204
83	0x3da91882	0.082566276
84	0xbdcc0449	-0.09961755
85	0x3e0c5517	0.13704334
86	0xbcab207d	-0.020889515
87	0xbd930009	-0.07177741
88	0x3e047006	0.12933359
89	0x3e2c1525	0.16804941
90	0xbdcb60dc	-0.09930584
91	0x3dd8b80e	0.10581981
92	0xbdaca787	-0.08430391
93	0xbe2655cb	-0.16243665
94	0x3e224197	0.15845333
95	0xbd9152fd	-0.07095907

fc2.bias f4 [3]
0	0x3e07099a	0.13187256
1	0x3e0c998c	0.13730448
2	0xbdad9ee3	-0.08477571
