1.REINFORCE/models/model_0.27193.pth (torch, 2880 bytes, 4 tensors)

fc1.weight f4 [32, 2]
00000000: c9c7 b9be b069 633f 738c 8bbe 1039 c6bd
00000010: 4de1 473f bc5c 72be c866 28bf 4225 e5be
00000020: 7692 c23e fa5a 6fbe 2580 0bbf dd53 74be
00000030: 72df a8be d27b edbd 00d4 143f e1cc 633e
00000040: bb56 2a3f 20b3 06be 9ef2 ae3e f214 b23e
00000050: 02e2 babe 2d99 7abe 32d6 aa3e f4f6 1bbf
00000060: fcc8 e33e e24f aa3e 50ef 263f fb85 a2be
00000070: 10c9 7b3e 1061 54be 7c7c f2be d4df ea3e
00000080: 9a52 203f 70e4 b83e 9b8b 333f d424 b63c
00000090: 3c80 7abc c73c 70bf b957 97be db89 d9be
000000a0: ecd4 01bf d6b6 7dbf 2055 903d 2081 a43c
000000b0: 90b3 2abf 101a 3b3f 8ce0 773d 4880 1abf
000000c0: fdb9 0cbf 2c4d 633f a7fc 8abe 502e 18bf
000000d0: f082 273e 3450 6c3e b5db d5be a343 f23e
000000e0: 86b9 283f 189b 9e3d 2f97 6fbd a261 bd3e
000000f0: 0e33 dc3e a053 c8bc f276 81be 2f8b 42bf
-0.36285236 0.8883314 -0.27255592 -0.096788526 0.78078157 -0.23668188 -0.6578183 -0.44754988
0.38002366 -0.23374549 -0.5449241 -0.23860116 -0.32982975 -0.115958825 0.58135986 0.22246124
0.6653859 -0.13154268 0.34169477 0.34781605 -0.36500555 -0.24472494 0.33366543 -0.60923696
0.44489276 0.3326407 0.6520891 -0.31742844 0.24588418 -0.20740151 -0.473606 0.45873892
0.6262604 0.36111784 0.70134896 0.022234358 -0.0152893625 -0.9384274 -0.29559115 -0.42487988
-0.5071552 -0.9910711 0.07047486 0.020081103 -0.6668024 0.73086643 0.06051688 -0.6035199
-0.54971296 0.8878963 -0.27145883 -0.5944567 0.16358542 0.2307747 -0.41769186 0.47317228
0.65908086 0.077444255 -0.05849379 0.3698855 0.43007702 -0.024453938 -0.2528606 -0.7599363

fc1.bias f4 [32]
00000000: adcf 6dbe 4602 34bf 0002 113f 8243 16bf
00000010: c09a 0f3d ad95 dc3e d813 843d 21e3 233e
00000020: 99e1 2bbf 7e68 a3be 30a3 c13e ae8a 1abf
00000030: 0501 eb3e 535a 8e3e f30c 903e 5e11 f6bd
00000040: d461 303e 453f 1f3f 16c1 373e 37e6 803e
00000050: c475 ff3e 8919 8fbe eb6b 0f3f d646 2b3e
00000060: 050e d23e eed0 cebe 9e3e c3be b342 993d
00000070: c326 d93e b603 523d 7d2d 2dbf a48e 703d
-0.23223753 -0.7031597 0.56643677 -0.5869676 0.03505969 0.43082944 0.064490974 0.16004612
-0.6714111 -0.3191566 0.37819815 -0.6036786 0.45899215 0.27803287 0.2813488 -0.12015031
0.17224818 0.62205917 0.1794475 0.2517564 0.49894536 -0.2794917 0.56024045 0.1672624
0.4102632 -0.40393776 -0.3813371 0.07483425 0.42412385 0.05127307 -0.67647535 0.058729783

fc2.weight f4 [3, 32]
00000000: 46dc ddbd 20a4 1bbe 0ba9 ebbb c8e8 1d3d
00000010: e102 35be 7262 49bd 387a f73d 0731 8c3d
00000020: 9e27 b93d 8241 acbd b972 3f3d 3b7b 0ebe
00000030: 205a f7bc e239 a0bc 2660 883d 2b50 05be
00000040: 435a 9bbd d814 063e 3d98 1a3e b896 ef3d
00000050: 7ff6 f83d e3c2 013e c506 02be 7fda 673d
00000060: 527d fd3d 9218 c83d d47e 323d 5d22 fcbd
00000070: e295 343e d5e8 7d3c 42c5 d13d c042 993b
00000080: 0cfa 99bd 20fd 2fbd aa91 403d e91e 1bbe
00000090: 10a1 58bc a7cd ec3d 175a 123e f9bc 9bbd
000000a0: 9288 1abe 1a00 b83d a5b9 0cbe 4cc8 c4bd
000000b0: ebf1 24be a336 2b3d 2249 54bc b6af bbbd
000000c0: 40a2 443b 2f95 b0bd 7810 0f3e 7f4c c93d
000000d0: 9a6e 81bd c86f 713d bd9a fcbd 7e52 d33c
000000e0: d93b 29be b053 98bc d8d7 393d 9cd2 8b3d
000000f0: 983b 10be c0d4 b93b 3520 82bd 0535 05be
00000100: caaa 01bc 63b5 15be a8db abbd 7418 26be
00000110: ac34 0fbe d633 5e3e 7ef6 433e 5efc acbd
00000120: 4673 0cbe d37b 083e 9bb4 c7bd 8897 26bd
00000130: 87a7 403d 30de 9e3d eeb6 e03d 4012 9d3c
00000140: 25d8 d2bd dc57 433e 9864 6abb 18c1 31bc
00000150: aef4 93bd 78eb 5ebd 3bea 1d3e f231 9c3c
00000160: c2c1 3e3e 89f3 163e 7a2e fc3d ea1e 3f3d
00000170: 9202 283e 0835 7d3d e448 18bd 7b70 cabd
-0.108330294 -0.15199327 -0.0071917824 0.038552076 -0.1767688 -0.04916615 0.12083858 0.06845289
0.090407595 -0.08410932 0.046740267 -0.13914196 -0.030194342 -0.01955885 0.06658964 -0.13018863
-0.075855754 0.13093889 0.15097137 0.11698669 0.121563904 0.12672 -0.12697895 0.05660486
0.123774186 0.097703114 0.043577984 -0.12311242 0.17635301 0.015497406 0.10242702 0.0046771467
-0.07518396 -0.04296601 0.047013916 -0.1514851 -0.013221994 0.115626626 0.14292179 -0.07604403
-0.1509116 0.08984394 -0.13742693 -0.09608516 -0.1610791 0.041800153 -0.012956889 -0.091643736
0.0030003935 -0.086222045 0.13971126 0.098290436 -0.06319924 0.058944494 -0.123342015 0.025796171
-0.16526736 -0.018594593 0.04537186 0.0682728 -0.14085233 0.0056711137 -0.06353799 -0.13008507
-0.007914254 -0.14619975 -0.083915055 -0.16220266 -0.13984936 0.21699461 0.19136998 -0.08446573
-0.13715848 0.13328485 -0.09751245 -0.040671855 0.047034767 0.07757223 0.10972391 0.019173741
-0.102951325 0.19076484 -0.0035765525 -0.01084926 -0.07224403 -0.05442378 0.15421383 0.019066785
0.186286 0.14741339 0.12313552 0.04666034 0.1640723 0.061818153 -0.03717889 -0.09884735

fc2.bias f4 [3]
00000000: f376 9bbc e6a1 863d e9ea 13bc
-0.018977618 0.065738484 -0.009028175
