1.REINFORCE/models/model_0.12942.pth (torch, 2880 bytes, 4 tensors)

fc1.weight f4 [32, 2]
0	0x3d412dfc	0.047162995
1	0xbe69bf19	-0.22826804
2	0x3e659d3c	0.22423261
3	0xbe110490	-0.14161897
4	0xbd194a76	-0.037424527
5	0xbc666742	-0.0140627045
6	0x3e289406	0.16462716
7	0xbdd6c646	-0.104870364
8	0xbe0c174f	-0.13680767
9	0x3d58c72f	0.05292433
10	0xbebcf9af	-0.36909243
11	0xbedd635a	-0.43239862
12	0x3f1052bf	0.5637626
13	0x3f32a08b	0.6977622
14	0x3e40d683	0.1883183
15	0xbf1783b7	-0.59185356
16	0x3ee2dd7e	0.4430961
17	0xbedc9572	-0.43082768
18	0xbe03a0c0	-0.1285429
19	0xbe69020c	-0.22754687
20	0xbe694ae9	-0.22782482
21	0x3dc47bea	0.09593947
22	0xbec0b195	-0.37635484
23	0x3e9a6a45	0.30159202
24	0xbe0d1d6d	-0.13780756
25	0x3e1b5df0	0.15172553
26	0xbe77dbe4	-0.24204975
27	0xbee2c887	-0.44293615
28	0x3f158141	0.5840035
29	0x3e88ed18	0.26743388
30	0x3f0a6acb	0.54069203
31	0xbdd60100	-0.104494095
32	0xbf16b86a	-0.58875144
33	0xbf0c0a1e	-0.5470294
34	0x3f228bdb	0.6349465
35	0x3d41bbb0	0.047298133
36	0x3c2c89ae	0.010530872
37	0xbe80bfec	-0.25146425
38	0xbecc9d0e	-0.39963573
39	0x3f18e96f	0.5973119
40	0x3f138c19	0.5763565
41	0x3e68a164	0.22717816
42	0xbe8e2ad5	-0.27767053
43	0x3db62861	0.088944204
44	0xbf1a998b	-0.6039054
45	0xbf181bf3	-0.5941765
46	0xbe479afc	-0.19492716
47	0xbe815e1c	-0.25267112
48	0xbf1f3516	-0.6219038
49	0xbddceabf	-0.10786962
50	0xbe5776b6	-0.21041378
51	0x3ec9b7ee	0.3939814
52	0xbeabaa94	-0.33528578
53	0xbe1e1b87	-0.15440188
54	0x3e8f4b38	0.27987075
55	0xbeecd443	-0.46255693
56	0x3e6cfbb5	0.23142894
57	0x3e5beaea	0.21476331
58	0xbdd6c1f0	-0.104862094
59	0xbecd8e85	-0.40147796
60	0xbe95e789	-0.2927821
61	0x3f23d42e	0.63995636
62	0xbabce714	-0.0014412128
63	0x3eafb3d2	0.3431688

fc1.bias f4 [32]
0	0x3f251f39	0.64500767
1	0x3cc36ba0	0.02385503
2	0x3e628613	0.22121458
3	0x3e963024	0.29333603
4	0x3ef08191	0.4697385
5	0x3ebe767d	0.37199774
6	0x3e396130	0.1810348
7	0x3eb4ba08	0.3529818
8	0xbe838fba	-0.25695592
9	0xbf0ce206	-0.55032384
10	0xbe153ebe	-0.14574715
11	0x3daf4601	0.08558274
12	0x3ea18ad6	0.31551236
13	0xbf2d531b	-0.67704934
14	0xbe266d88	-0.1625272
15	0xbdb76868	-0.08955461
16	0x3d23d9b0	0.040002525
17	0xbebc4145	-0.36768547
18	0x3f1ab5db	0.6043374
19	0x3f26919d	0.6506594
20	0xbf2af0d1	-0.66773707
21	0xbe16a4bf	-0.14711283
22	0xbeb63152	-0.35584503
23	0xbf2aa1e0	-0.6665325
24	0xbd86f5cc	-0.06589851
25	0xbdaee553	-0.08539834
26	0x3d329a2d	0.043604065
27	0xbd1eb030	-0.038742244
28	0x3ec84518	0.39115214
29	0x3f24d958	0.6439414
30	0x3d61eb8d	0.05515628
31	0x3e4ab568	0.19795763

fc2.weight f4 [3, 32]
0	0xbdd21110	-0.10257161
1	0xbe1e3ab4	-0.15452081
2	0x3d9471c4	0.072482616
3	0xbe169b8f	-0.14707778
4	0x3daa2be4	0.08309153
5	0x3e30a139	0.17249002
6	0xbe065634	-0.13118821
7	0xbdc44a3d	-0.09584472
8	0xbd940b66	-0.072287366
9	0x3dc7629e	0.097356066
10	0x3d9ec4fe	0.07752417
11	0xbcc7fa21	-0.024411263
12	0xbd72ed8e	-0.05930858
13	0x3db7bad2	0.0897118
14	0x3df1fb1a	0.11815472
15	0xbe344076	-0.17602715
16	0xbda66430	-0.08124578
17	0xbdf49cca	-0.11943968
18	0xbe1f6f52	-0.15569809
19	0x3df5a698	0.11994666
20	0xbe0e8056	-0.13916144
21	0xbe35b948	-0.1774646
22	0x3bedb707	0.0072544846
23	0xbe2529ad	-0.1612918
24	0xbd8907f3	-0.06690969
25	0xbd5067b4	-0.05088015
26	0x3e0db89e	0.13839957
27	0x3e1f80db	0.15576498
28	0xbdd08055	-0.101807274
29	0xbe0f9500	-0.14021683
30	0xbda8887f	-0.082291596
31	0xbe2cdd92	-0.16881397
32	0xbe07ee1c	-0.13274425
33	0xbd9a8f77	-0.07546895
34	0x3e06974c	0.13143653
35	0x3e04df1f	0.12975739
36	0xbe14de04	-0.14537817
37	0xbe03d0eb	-0.12872665
38	0xbe2c6cae	-0.16838333
39	0xbd694273	-0.056948137
40	0xbd3530fc	-0.04423617
41	0xbdd09bcc	-0.10185966
42	0x3e26fd41	0.16307546
43	0x3da9d82c	0.08293185
44	0xbdb17fe6	-0.08666973
45	0xbd903c9e	-0.07042812
46	0x3cd1f240	0.02562821
47	0x3e18877d	0.14895435
48	0x3d0e85b1	0.034795467
49	0xbe274226	-0.16333827
50	0x3d5e7a38	0.054315776
51	0x3d199a71	0.037500802
52	0xbe2ad698	-0.16683424
53	0xbe269011	-0.16265894
54	0x3e08882c	0.13333195
55	0x3de8ab9e	0.113608584
56	0x3dbe95aa	0.0930589
57	0x3e191ddd	0.14952798
58	0x3caf3ba2	0.02139074
59	0xbe33a89f	-0.17544793
60	0x3dcca411	0.09992231
61	0xbc08ef1f	-0.008357792
62	0xbe1597a7	-0.14608632
63	0x3d34f163	0.044175517
64	0xbe2ae206	-0.16687784
65	0xbd59e63e	-0.05319809
66	0xbb190b0c	-0.0023352532
67	0x3e02d9b8	0.12778366
68	0x3d7916cc	0.060812756
69	0x3e24a741	0.16079427
70	0x3e130e69	0.14360966
71	0x3dbe1286	0.09280877
72	0x3e1fe0f7	0.15613161
73	0xbdebc9ac	-0.11513075
74	0xbdccd292	-0.100011006
75	0xbe27f4d7	-0.16401993
76	0xbd3779b4	-0.0447938
77	0x3e2d2293	0.1690772
78	0x3dc346da	0.09534998
79	0x3e259e31	0.16173626
80	0xbd085cbd	-0.033291567
81	0x3dd0350a	0.101663664
82	0xbddbb4f5	-0.10727874
83	0x3d8a9dea	0.06768401
84	0xbdcc0449	-0.09961755
85	0x3e1c8050	0.15283322
86	0xbc0c546b	-0.008565049
87	0xbd930009	-0.07177741
88	0x3ded49ed	0.11586366
89	0x3e262453	0.16224794
90	0xbde92de9	-0.1138571
91	0x3dd8b80e	0.10581981
92	0xbdcd02a2	-0.10010268
93	0xbe35eb61	-0.17765571
94	0x3e1409e3	0.14456896
95	0xbdb06481	-0.086129196

fc2.bias f4 [3]
0	0x3e10e7f8	0.14150989
1	0x3e0d4cf3	0.13798885
2	0xbdccb70d	-0.09995852
