1.REINFORCE/models/model_34.61571.pth (torch, 2888 bytes, 4 tensors)

fc1.weight f4 [32, 2]
0	0xbf0f906a	-0.56079733
1	0x3f263a40	0.6493263
2	0xbd476414	-0.048679426
3	0xbe61685a	-0.22012463
4	0x3ea784e6	0.3271858
5	0x3e2e6e98	0.17034376
6	0xbf01d94d	-0.507222
7	0xbd92bba6	-0.07164697
8	0xbe0c2959	-0.13687648
9	0xbeb3148a	-0.34976608
10	0xbe14f1b8	-0.14545333
11	0x3f0df35f	0.5544948
12	0x3dd3821a	0.10327549
13	0xbe15a2a8	-0.1461283
14	0xbd33d3ea	-0.04390327
15	0xbf0c42c4	-0.54789376
16	0xbf21a57d	-0.6314314
17	0x3eb2b860	0.34906292
18	0x3f2545f4	0.64559865
19	0x3d8affa4	0.06787041
20	0xbf24eaf8	-0.64421034
21	0xbec3078d	-0.38091698
22	0xbf38691f	-0.720354
23	0xbe4da1dd	-0.20081277
24	0xbd26e610	-0.04074675
25	0x3ea752ee	0.32680458
26	0x3ecf8726	0.40532798
27	0x3d05fb20	0.032710195
28	0xbe500e84	-0.20318037
29	0xbefcc836	-0.493715
30	0xbee08beb	-0.4385675
31	0xbb87e3f0	-0.0041470453
32	0xbf0a0bc7	-0.5392422
33	0x3eba9091	0.3643842
34	0xbec537dc	-0.3851918
35	0xbdf0dc11	-0.11760724
36	0x3eda50d8	0.42639804
37	0x3e9dc916	0.3081748
38	0xbd1ce1be	-0.038301222
39	0x3f1c607b	0.6108472
40	0xbe6bfe61	-0.23046257
41	0xbe808d6b	-0.25107893
42	0xbee80c3a	-0.45321828
43	0x3ed3bcaa	0.41354877
44	0x3f10cd45	0.56563216
45	0xbc401fc0	-0.01172632
46	0x3f214a95	0.6300443
47	0xbe8b4bf2	-0.2720638
48	0x3f02f5f9	0.51156574
49	0xbf3865a5	-0.720301
50	0xbeaaeda3	-0.33384427
51	0xbefb8fa0	-0.49133015
52	0xbf2a29b9	-0.66469914
53	0x3f24022b	0.6406581
54	0x3e9d2582	0.3069268
55	0x3e5414d8	0.20711076
56	0x3f1dcca7	0.616404
57	0xbf091871	-0.5355292
58	0x3ead6de5	0.33872905
59	0xbe7f3f5b	-0.24926512
60	0xbf327192	-0.69704545
61	0xbe12850e	-0.14308569
62	0x3db3fb90	0.08788216
63	0x3f138337	0.5762209

fc1.bias f4 [32]
0	0xbe92cc81	-0.2867165
1	0x3f034114	0.51271176
2	0xbdc22020	-0.094787836
3	0xbdea4070	-0.11438072
4	0x3e456a3d	0.19278808
5	0xbf28f4b2	-0.65998375
6	0x3ebbbda6	0.36668128
7	0x3f164b35	0.58708507
8	0xbe999c49	-0.3000205
9	0x3f1d5ef3	0.61473006
10	0xbc87dd06	-0.016584884
11	0x3ebe3392	0.3714872
12	0xbeda564e	-0.4264397
13	0xbeef395e	-0.46723455
14	0xbeeda0df	-0.46411797
15	0x3e191a9f	0.14951561
16	0x3e6fd313	0.23420362
17	0xbc561a96	-0.013067862
18	0x3eb5f41b	0.355378
19	0x3ea5a707	0.32353994
20	0x3f1c9744	0.61168313
21	0xbedc68db	-0.43048748
22	0xbc39ea00	-0.011347294
23	0xbecd1e4d	-0.4006218
24	0x3e6f6589	0.23378576
25	0x3e4c934b	0.19978063
26	0xbf21da6c	-0.6322391
27	0xbf25c639	-0.6475559
28	0x3e8a5c7c	0.27023685
29	0x3e9c44aa	0.30521137
30	0xbf0c9ef3	-0.5493004
31	0xbe8aad31	-0.2708526

fc2.weight f4 [3, 32]
0	0x3bb8a30f	0.0056346725
1	0xbe2314e3	-0.15925936
2	0x3cc0cef0	0.023536175
3	0xbd907497	-0.07053488
4	0x3dca4ae6	0.09877567
5	0xbe1df43b	-0.15425198
6	0xbd4f80a0	-0.050659776
7	0xbaebc891	-0.0017988851
8	0xbd39ab9d	-0.04532968
9	0x3e2f29c7	0.1710578
10	0x3dfe0228	0.12402755
11	0xb9ddc4b0	-0.00042298948
12	0x3db07e56	0.08617847
13	0x3c8e4200	0.017365456
14	0x3e310f45	0.17290981
15	0x3d4c4bac	0.049876854
16	0xbe08cb1c	-0.1335873
17	0x3df02d59	0.117273994
18	0xbd91907a	-0.07107635
19	0xbda17b9c	-0.07884905
20	0x3d3e7322	0.046496518
21	0x3e075e85	0.1321965
22	0xbd848dd0	-0.06472361
23	0x3d9a318a	0.0752898
24	0x3e0838d3	0.13302927
25	0xbc26a4d8	-0.010171138
26	0xbde8fba1	-0.113761194
27	0xbd482428	-0.048862606
28	0x3deb91f6	0.11502449
29	0x3e148afe	0.14506146
30	0x3e092c92	0.13395908
31	0xbd511c78	-0.05105254
32	0x3e3f702e	0.18695137
33	0xbe6f9ebb	-0.23400395
34	0x3cae86e8	0.021304563
35	0x3b2a7cfd	0.002601444
36	0x3db85e2e	0.09002338
37	0x3dc1676a	0.09443553
38	0xbe48f509	-0.19624723
39	0xbcab2266	-0.020890426
40	0x3e35251c	0.17689937
41	0x3cbd32e2	0.023095552
42	0xbdcd8572	-0.10035218
43	0xbe1e335b	-0.15449278
44	0x3de15be6	0.11003856
45	0xbe1243d8	-0.14283693
46	0x3e157cb1	0.14598347
47	0xbd878f47	-0.06619125
48	0xbc32e53d	-0.0109189125
49	0x3d6245e4	0.055242434
50	0xbe84ad18	-0.2591331
51	0xbdaa412b	-0.08313211
52	0xbe5dcf44	-0.21661097
53	0xbb845ea0	-0.0040396005
54	0x3e03f4b7	0.1288632
55	0x3defada6	0.11703043
56	0xbe576d18	-0.2103771
57	0xbe361218	-0.1778034
58	0x3cf73a40	0.030179143
59	0xbe2d1f55	-0.16906483
60	0xbcb64f57	-0.022254629
61	0xbd699560	-0.05702722
62	0xbdc756ae	-0.0973333
63	0xbdf82882	-0.12117101
64	0xbe31131c	-0.17292446
65	0x3dc7a346	0.09747939
66	0xbdd77ffc	-0.10522458
67	0x3e3ba137	0.18323217
68	0xbc2f6cec	-0.010707121
69	0x3ddd2762	0.10798527
70	0xbd865c3f	-0.06560563
71	0x3e2773c5	0.16352756
72	0xbdea6776	-0.11445515
73	0x3e833bb9	0.25631502
74	0x3c4b39b6	0.012403896
75	0x3ca8fbf4	0.020627953
76	0xbc982150	-0.018570572
77	0x3cc5ae30	0.02413091
78	0x3dab46d6	0.0836312
79	0x3e4fec1e	0.20304915
80	0x3e334582	0.17506984
81	0x3dc47b32	0.0959381
82	0x3b09dfeb	0.0021038007
83	0x3dddb8cd	0.108262636
84	0x3e3a008b	0.1816427
85	0xbe112a5a	-0.14176312
86	0x3e0bc30b	0.13648622
87	0xbdaaa117	-0.08331507
88	0x3ddece61	0.108792074
89	0x3e093701	0.13399889
90	0x3de88e1e	0.11355232
91	0xbd1ccd08	-0.03828147
92	0x3d66a8c9	0.05631331
93	0x3decf8a8	0.11570865
94	0x3d101cf8	0.035183877
95	0x3d07dd20	0.033169866

fc2.bias f4 [3]
0	0xbe1e1b3f	-0.15440081
1	0xbe7f5861	-0.24936058
2	0x3db02e04	0.08602527
