1.REINFORCE/models/model_0.40720.pth (torch, 2880 bytes, 4 tensors)

fc1.weight f4 [32, 2]
-0.3266324 0.88710237 -0.27255592 -0.096788526 0.82382935 -0.25898355 -0.6578183 -0.44754988
0.36988038 -0.22857709 -0.50408083 0.32774103 -0.2576733 0.34634274 0.5906273 0.18633679
0.6653859 -0.13154268 0.34169477 0.34781605 -0.34694895 -0.6139622 0.33366543 -0.60923696
0.436885 1.0257807 0.53059804 0.3805951 0.26966995 0.4305319 -0.41642928 0.94706696
0.41589758 0.46037948 0.67496955 0.6308107 0.05455266 -1.4763836 -0.20269951 -0.9219418
-0.47694382 -1.4529648 0.07047486 0.020081103 -0.6743404 1.3542509 0.15048479 -0.92988074
-0.5909577 1.2701476 -0.27145883 -0.5944567 0.16358542 0.2307747 -0.34528863 0.9367289
0.620929 0.55227405 -0.0010070559 0.90070516 0.43007702 -0.024453938 -0.22690147 -1.203927
00000000: 5d3c a7be 2419 633f 738c 8bbe 1039 c6bd
00000010: 7be6 523f 7e99 84be c866 28bf 4225 e5be
00000020: f660 bd3e 1d10 6abe 710b 01bf accd a73e
00000030: c1ed 83be d653 b13e 5a33 173f 12cf 3e3e
00000040: bb56 2a3f 20b3 06be 9ef2 ae3e f214 b23e
00000050: 4ba3 b1be a02c 1dbf 32d6 aa3e f4f6 1bbf
00000060: 64af df3e c84c 833f 46d5 073f 5cdd c23e
00000070: 2e12 8a3e ad6e dc3e 3836 d5be fb72 723f
00000080: 87f0 d43e dcb6 eb3e ceca 2c3f cf7c 213f
00000090: 9c72 5f3d 23fa bcbf 7690 4fbe 6104 6cbf
000000a0: fb31 f4be c0fa b9bf 2055 903d 2081 a43c
000000b0: 93a1 2cbf 1858 ad3f af18 1a3e aa0c 6ebf
000000c0: 0149 17bf 3294 a23f a7fc 8abe 502e 18bf
000000d0: f082 273e 3450 6c3e acc9 b0be 77cd 6f3f
000000e0: 34f5 1e3f d561 0d3f 30ff 83ba 9d94 663f
000000f0: 0e33 dc3e a053 c8bc dc58 68be 481a 9abf

fc1.bias f4 [32]
-0.2595145 -0.7031597 0.54712635 -0.5869676 0.046457574 0.47434366 0.041656494 0.14033604
-0.6714111 -0.3191566 0.28653342 -0.6036786 0.51852334 0.485884 0.30940008 -0.155459
0.4267529 0.6837839 0.055520643 0.109987736 0.37989393 -0.2794917 0.63269746 0.04466074
0.45848882 -0.40393776 -0.3813371 0.07825007 0.49020925 0.04531165 -0.67647535 -0.05373832
00000000: 16df 84be 4602 34bf 7910 0c3f 8243 16bf
00000010: 4c4a 3e3d 2cdd f23e 00a0 2a3d 40b4 0f3e
00000020: 99e1 2bbf 7e68 a3be 82b4 923e ae8a 1abf
00000030: f2bd 043f cac5 f83e b069 9e3e a530 1fbe
00000040: 5b7f da3e 760c 2f3f 9d69 633d 4041 e13d
00000050: 7581 c23e 8919 8fbe 76f8 213f 2eee 363d
00000060: 0cbf ea3e eed0 cebe 9e3e c3be 9341 a03d
00000070: b5fc fa3e b598 393d 7d2d 2dbf b61c 5cbd

fc2.weight f4 [3, 32]
-0.09997262 -0.15199327 -0.17722169 0.038552076 -0.18683657 -0.067777865 0.13185559 -0.02689461
0.090407595 -0.08410932 0.016954321 -0.13914196 -0.18097688 -0.27342528 -0.043881603 -0.07515222
-0.36098206 -0.042033255 0.15255147 0.11028279 0.102334954 0.12672 -0.159692 0.04258097
0.085020475 0.097703114 0.043577984 -0.11590671 -0.111769244 -0.0059169433 0.10242702 0.024378935
-0.074827954 -0.04296601 0.048853517 -0.1514851 -0.0039193304 0.06643327 0.11640744 -0.11879088
-0.1509116 0.08984394 -0.18943737 -0.09608516 -0.16525042 0.04225884 0.0024753914 -0.103497446
0.015001282 -0.0919384 0.08903981 0.042194445 -0.119917996 0.058944494 -0.17656744 0.024837527
-0.22030762 -0.018594593 0.04537186 0.022694696 -0.08492805 0.020259146 -0.06353799 -0.1691821
-0.014940439 -0.14619975 0.043502823 -0.16220266 -0.13138299 0.28269532 0.20860235 0.029610356
-0.13715848 0.13328485 -0.019980064 -0.040671855 0.17232828 0.28175706 0.1838697 -0.015506045
0.13825159 0.33521062 0.046539787 0.051372457 0.0017397122 -0.05442378 0.23566294 0.031388298
0.27463394 0.14741339 0.12313552 0.086243704 0.3574057 0.06556508 -0.03717889 -0.07759104
00000000: 72be ccbd 20a4 1bbe 9a79 35be c8e8 1d3d
00000010: 1652 3fbe 1fcf 8abd 2705 073e 1652 dcbc
00000020: 9e27 b93d 8241 acbd cae3 8a3c 3b7b 0ebe
00000030: 0152 39be 66fe 8bbe 32bd 33bd 68e9 99bd
00000040: a4d2 b8be 102b 2cbd 7436 1c3e f2db e13d
00000050: fd94 d13d e3c2 013e 4d86 23be 6269 2e3d
00000060: 371f ae3d 9218 c83d d47e 323d 7f60 edbd
00000070: 46e7 e4bd ebe2 c1bb 42c5 d13d 55b6 c73c
00000080: 663f 99bd 20fd 2fbd a01a 483d e91e 1bbe
00000090: ba6d 80bb 2b0e 883d 0667 ee3d a248 f3bd
000000a0: 9288 1abe 1a00 b83d dffb 41be 4cc8 c4bd
000000b0: 6837 29be 9b17 2d3d 2d3a 223b 78f6 d3bd
000000c0: f0c7 753c 334a bcbd 815a b63d 15d4 2c3d
000000d0: 9197 f5bd c86f 713d 18ce 34be 1278 cb3c
000000e0: 5298 61be b053 98bc d8d7 393d 3aea b93c
000000f0: c2ee adbd 82f6 a53c 3520 82bd 133e 2dbe
00000100: bec8 74bc 63b5 15be 0430 323d 7418 26be
00000110: 4389 06be 71bd 903e db9b 553e 6b91 f23c
00000120: 4673 0cbe d37b 083e 3bad a3bc 8897 26bd
00000130: d376 303e 7642 903e 5748 3c3e 110d 7ebc
00000140: d391 0d3e baa0 ab3e 81a0 3e3d ed6b 523d
00000150: 0e07 e43a 78eb 5ebd a051 713e 0491 003d
00000160: d29c 8c3e 89f3 163e 7a2e fc3d 8aa0 b03d
00000170: e1fd b63e fc46 863d e448 18bd 0de8 9ebd

fc2.bias f4 [3]
-0.07742309 0.01113317 0.09482866
00000000: ff8f 9ebd e667 363c 8735 c23d
