1.REINFORCE/models/model_0.34702.pth (torch, 2880 bytes, 4 tensors)

fc1.weight f4 [32, 2]
000000 01 76 4b bf 71 0a c8 3e 10 51 a3 be 2a 04 4e 3e
       -0.79476935 0.39070466 -0.31897783 0.20118776
000010 9d 0a 21 3f ba 93 d9 be b0 66 cb 3d 2b 63 79 be
       0.6290682 -0.4249552 0.099316955 -0.24354236
000020 b0 9e 00 bd 4e 51 f8 be 4e 12 89 3e 8e 9c a4 3e
       -0.031401336 -0.4849953 0.26771778 0.32150692
000030 c1 9c 29 bc 07 85 00 bd 41 c1 23 3f 67 48 31 3f
       -0.010352314 -0.031376865 0.6396676 0.692511
000040 30 b7 4d 3d b7 f8 03 bf 8c 5b 10 3e 24 13 0e 3e
       0.05022353 -0.51551384 0.14097422 0.13874489
000050 0d d5 2c 3e 33 2d 0b 3c 92 e9 1a bf 35 72 ba be
       0.16878147 0.008494663 -0.6051265 -0.36415258
000060 44 14 33 bf d2 3d 19 3f a0 e0 08 bf 14 71 62 be
       -0.699528 0.59859955 -0.5346775 -0.22113448
000070 ce 1f 11 bf 3f c1 e4 be 9c bc 90 be 1e 50 05 bf
       -0.56689155 -0.44678685 -0.28268898 -0.52075374
000080 5e 29 06 bf 0d 77 9f be 93 c2 d6 3e d7 5e 95 3e
       -0.5240687 -0.31145516 0.41945323 0.2917392
000090 78 3a 98 3d 10 16 af be e8 17 da 3a 50 21 a7 bd
       0.07433027 -0.3419652 0.0016639205 -0.08160651
0000a0 8a 5a 86 3e 95 6e de bd 17 75 e8 be f6 83 c5 3e
       0.2624095 -0.108609356 -0.45401832 0.3857724
0000b0 2c 55 21 be 35 9c 23 3f 1b 97 1c 3f ca 73 e3 3e
       -0.15755147 0.6391023 0.6116807 0.44424278
0000c0 75 df f6 3d 4b 96 be 3e 25 f4 b8 be 64 1a 00 be
       0.1205434 0.3722404 -0.36123767 -0.12510067
0000d0 fe 83 de 3e 8c 5f 09 bf 22 ca 2d 3f 76 c5 31 3f
       0.43460077 -0.5366142 0.67886555 0.69441926
0000e0 00 70 68 3e f2 23 84 3e 00 4e df bd 79 a7 df be
       0.22698975 0.25808674 -0.10903549 -0.4368246
0000f0 04 45 5b 3e 43 b3 9c be 04 f4 e8 3d d6 0d ed 3d
       0.21413046 -0.30605516 0.11374667 0.115749046

fc1.bias f4 [32]
000000 6d 99 08 3e 06 a4 19 bd c0 f0 a7 3d 69 10 29 3f
       0.13339777 -0.03750994 0.08200216 0.66040665
000010 75 78 a1 be a0 04 a7 bc 3b 16 22 3f b5 af d0 be
       -0.31537214 -0.020387948 0.6331517 -0.40759054
000020 a9 fa ce be 07 7a 16 bf f7 37 c4 3e ad e8 1c 3f
       -0.40425614 -0.5877995 0.38323948 0.61292535
000030 78 99 2e be 72 e1 1c bf 27 5f 32 bd 55 50 97 3e
       -0.17050731 -0.612815 -0.043547776 0.29553476
000040 59 63 25 bf ee cf b8 3e da 99 82 be b4 e1 57 3e
       -0.6460472 0.36096138 -0.25508004 0.21082193
000050 1a ba ef 3e 73 41 0b bf 96 a5 00 bf 88 65 08 be
       0.46821672 -0.5439674 -0.50252664 -0.13319981
000060 ee 3c 06 3f f0 1a e7 be 38 fe e8 3d 37 2f 01 3f
       0.5243672 -0.4513774 0.113766134 0.5046267
000070 20 89 83 3c 23 a3 21 3f 08 73 1a be 90 42 90 3d
       0.016056597 0.6313955 -0.15082943 0.07043946

fc2.weight f4 [3, 32]
000000 2d f9 83 3e 64 c8 25 3d 20 62 6c bc 66 71 16 3b
       0.25776044 0.04047431 -0.014427692 0.0022955774
000010 27 ac 23 3e 4b 44 08 3e 2b c4 97 bd e0 a4 9c 3b
       0.1598364 0.13307302 -0.07410463 0.004780397
000020 5c 6b 21 3d 67 cd 01 3e 03 cf eb bd 01 75 9f 3d
       0.039409027 0.12676011 -0.11514094 0.077859886
000030 4c 90 72 3e 33 85 c6 bd b5 b9 c6 3d 51 fe 15 3e
       0.23687857 -0.096933745 0.097033896 0.14647795
000040 1f 47 fa bd 82 53 48 be 54 8e 5a bd 56 45 52 3c
       -0.122205965 -0.19563106 -0.05335839 0.012833914
000050 71 e5 44 3e 6e f0 9a 3d fb 39 07 3e d0 f0 47 3d
       0.1922815 0.075653896 0.13205712 0.04881364
000060 41 40 32 bd f7 ef 1d 3e f9 ca 1a 3e ad 3e 6e bd
       -0.04351831 0.1542357 0.1511649 -0.05816524
000070 d3 9c 2d 3e e7 03 30 3e 0a a4 df 3d 7c 07 cc bd
       0.16954355 0.17188989 0.1091996 -0.09962365
000080 44 67 5f be 70 f7 09 be c0 c6 0c bd 56 e1 0f be
       -0.21816736 -0.13473296 -0.03436923 -0.14050803
000090 9c 01 06 be a4 49 3e 3d 69 66 35 3d b9 5f b1 bd
       -0.13086551 0.046456948 0.04428712 -0.08660836
0000a0 d3 df 16 be 86 93 95 3d e4 48 07 be 48 06 c5 3a
       -0.1473382 0.073035285 -0.132114 0.0015031779
0000b0 85 96 5a be 91 30 22 3e 71 77 8f be cb 67 d0 bd
       -0.21346481 0.15838839 -0.28020814 -0.10176047
0000c0 a8 7e 0e be e7 da 99 3e 20 d4 b8 bc e4 6b e2 bc
       -0.13915503 0.30049822 -0.022562087 -0.027639337
0000d0 8a 3e 30 3e c0 e3 1a bc a8 11 bc 3c 9a d2 eb 3d
       0.17211357 -0.009453714 0.022957638 0.115147784
0000e0 f0 a4 1a bd 70 e6 df bd 98 ae 88 3c de 65 7f 3e
       -0.037754953 -0.10932624 0.016684815 0.24941203
0000f0 8f c2 2e be 63 ef 04 bc 0c 8c 47 bd 76 8b 04 3e
       -0.17066406 -0.008113715 -0.048717543 0.12943825
000100 44 c6 42 be 3e d9 5d be e0 2e 5f 3c 0b 77 75 be
       -0.19020945 -0.21664903 0.013622016 -0.23971193
000110 a9 90 80 bd 40 e8 4e bb ef b1 83 be 54 f1 8e 3d
       -0.06277592 -0.0031571537 -0.2572169 0.069796234
000120 23 7f 2b be 1e 92 d6 3d 6e d4 8b bd 1e 63 89 be
       -0.16747718 0.104770884 -0.06827627 -0.26833433
000130 5f a9 b6 bd 5f 4a 30 3e 43 8f 8b be 62 4d 0c be
       -0.08919024 0.1721587 -0.27257738 -0.13701394
000140 04 33 de bd b3 6c 63 3e de de e0 bd 28 16 ac bd
       -0.10849574 0.22209434 -0.109800085 -0.084026635
000150 0a 0e 65 3d 45 ff c7 bd ca a9 b0 3d a0 6b e3 3c
       0.05592159 -0.09765486 0.08626135 0.02776128
000160 39 3d 19 3c 06 09 cf 3d 00 63 38 bc 96 48 03 bd
       0.0093529755 0.10109143 -0.011254072 -0.032051645
000170 05 a8 0c 3e 67 0d 1e be e9 ee 2a 3e 10 a9 81 be
       0.1373597 -0.154348 0.166927 -0.25324297

fc2.bias f4 [3]
000000 50 87 22 3e c6 77 b6 3d 3d b8 89 be
       0.1587193 0.08909564 -0.26898375
