1.REINFORCE/models/model_0.48022.pth (torch, 2880 bytes, 4 tensors)

fc1.weight f4 [32, 2]
00000000: f08a a7be ded7 623f 738c 8bbe 1039 c6bd
00000010: 641e 3e3f dd8b cb3b c866 28bf 4225 e5be
00000020: 81a8 e23e eb76 88be 31cb f6be c5ad 0c3f
00000030: 9211 46be b1b0 fd3e ad90 173f 76f6 123e
00000040: bb56 2a3f 20b3 06be 9ef2 ae3e f214 b23e
00000050: 3eb3 6cbe 6b16 0fbf 32d6 aa3e f4f6 1bbf
00000060: a0cc fd3e d049 af3f 2116 053f 5c22 3a3f
00000070: 7025 9d3e ddf2 3f3f 8f5c bcbe c490 813f
00000080: 3932 c53e d838 453f 1eb2 3e3f a031 7a3f
00000090: 2ef4 513d 9f14 d2bf cc30 2ebe ec31 88bf
000000a0: ae44 c3be ef6d bfbf 2055 903d 2081 a43c
000000b0: 7cbd 1cbf 7135 d03f 0d6f 203e 36c8 6cbf
000000c0: 4a95 f9be ec91 c53f a7fc 8abe 502e 18bf
000000d0: f082 273e 3450 6c3e 5dd5 b5be 987f 883f
000000e0: 51da 253f fbb7 683f 54ab 88bc 68c5 8d3f
000000f0: 0e33 dc3e a053 c8bc ae77 2dbe 291d 9abf
-0.32723188 0.8861064 -0.27255592 -0.096788526 0.7426512 0.0062117414 -0.6578183 -0.44754988
0.44269183 -0.26653227 -0.48201898 0.5495265 -0.1934264 0.49548867 0.5920513 0.1435183
0.6653859 -0.13154268 0.34169477 0.34781605 -0.2311525 -0.5589358 0.33366543 -0.60923696
0.4957018 1.3694401 0.5198689 0.7270868 0.30692625 0.74979955 -0.36789367 1.0122304
0.3851488 0.7703986 0.74490535 0.9773197 0.05125826 -1.6412543 -0.17010802 -1.0640235
-0.38138336 -1.4955424 0.07047486 0.020081103 -0.6122663 1.6266309 0.15667363 -0.92493
-0.4874671 1.5435157 -0.27145883 -0.5944567 0.16358542 0.2307747 -0.35514346 1.0663939
0.6478625 0.9090573 -0.016683258 1.1075869 0.43007702 -0.024453938 -0.16940185 -1.2040149

fc1.bias f4 [32]
00000000: 94b5 84be 4602 34bf e55e 2c3f 8243 16bf
00000010: 14f6 b8bb 6434 fc3e 76c9 b0ba bc22 0e3e
00000020: 99e1 2bbf 7e68 a3be 1110 1e3e ae8a 1abf
00000030: 58b2 003f e313 113f 2058 a43e cc90 4abe
00000040: 0f5b 0c3f 5aab 263f 83e5 083d 3fdb 6f3d
00000050: 5129 843e 8919 8fbe 0c86 1a3f b40d 0e3d
00000060: af92 bc3e eed0 cebe 9e3e c3be 9767 fb3d
00000070: b348 023f 45a9 b03d 7d2d 2dbf 2e25 fcbd
-0.25919783 -0.7031597 0.673323 -0.5869676 -0.005644569 0.4925872 -0.0013487774 0.13880438
-0.6714111 -0.3191566 0.15435816 -0.6036786 0.5027213 0.5667097 0.32098484 -0.19781798
0.54826444 0.6510521 0.033422004 0.0585587 0.25812772 -0.2794917 0.6036079 0.034681037
0.3683066 -0.40393776 -0.3813371 0.122756176 0.5089218 0.086260356 -0.67647535 -0.12311779

fc2.weight f4 [3, 32]
00000000: 60d7 cdbd 20a4 1bbe fc7d a3be c8e8 1d3d
00000010: a95e bfbd 746a 09be f24d f23d 6918 12bd
00000020: 9e27 b93d 8241 acbd fe13 dabc 3b7b 0ebe
00000030: 8481 91be 0e83 ebbe 24c4 fbbd 275f 79bd
00000040: 43c3 1cbf d698 1cbe 56fc 0b3e 4220 a13d
00000050: 49de 593d e3c2 013e b414 6bbe b8e8 2a3d
00000060: 48f3 a23c 9218 c83d d47e 323d 5d5a 2abe
00000070: 5937 8dbe c073 35bd 42c5 d13d 1567 143d
00000080: a190 98bd 20fd 2fbd 2b91 f83d e91e 1bbe
00000090: 568a b4bd 37ba 223e 38ce 273e 6d31 b3bd
000000a0: 9288 1abe 1a00 b83d b3df e0bd 4cc8 c4bd
000000b0: 3ab3 9abd 559b 3e3e 296d 923d c655 a0bd
000000c0: a02d 6e3e 6833 813b 3107 023e 2ec7 cc3d
000000d0: 538b 11bd c86f 713d 66fa a5bd c632 cb3c
000000e0: d4ad ffbd b053 98bc d8d7 393d 6917 ba3d
000000f0: 97f1 013d 498a 113d 3520 82bd 53df 07be
00000100: 7988 72bc 63b5 15be f259 b33d 7418 26be
00000110: 463d 6bbe 2131 813e c829 343e 9b32 393c
00000120: 4673 0cbe d37b 083e ba90 66bd 8897 26bd
00000130: 0a2e 343e 4aca 993e 4690 3c3e dbd0 4bbd
00000140: c17f fe3d c893 ae3e 3eb2 b53c 8fdc b93c
00000150: 9521 0fbd 78eb 5ebd e78b 533e fe88 033d
00000160: 6ad0 783e 89f3 163e 7a2e fc3d 141c 823d
00000170: 74aa cb3e 7d7f a73d e448 18bd 1d6b f7bd
-0.10050845 -0.15199327 -0.31932056 0.038552076 -0.09344227 -0.13419515 0.11831273 -0.03566781
0.090407595 -0.08410932 -0.026620861 -0.13914196 -0.28419125 -0.45998424 -0.1229327 -0.06088176
-0.61235446 -0.15292677 0.13670477 0.07867481 0.053190503 0.12672 -0.22957116 0.041725844
0.019891396 0.097703114 0.043577984 -0.16636033 -0.2758129 -0.04429984 0.10242702 0.03623112
-0.07449461 -0.04296601 0.121370636 -0.1514851 -0.08815448 0.15891348 0.1638726 -0.087496616
-0.1509116 0.08984394 -0.10980167 -0.09608516 -0.07553716 0.18613942 0.07149727 -0.0782886
0.23259592 0.0039428957 0.12698056 0.09998928 -0.03553326 0.058944494 -0.081044 0.024804484
-0.12484327 -0.018594593 0.04537186 0.090864964 0.03172454 0.03553227 -0.06353799 -0.13268785
-0.014803045 -0.14619975 0.0875739 -0.16220266 -0.22972593 0.25232795 0.17594063 0.011303569
-0.13715848 0.13328485 -0.056290366 -0.040671855 0.17595688 0.30037147 0.18414411 -0.049759727
0.12426711 0.34097123 0.022179719 0.022688178 -0.034944136 -0.05442378 0.20658837 0.032113068
0.24298254 0.14741339 0.12313552 0.06353012 0.39778483 0.08178613 -0.03717889 -0.12080977

fc2.bias f4 [3]
00000000: a0b9 24be 7f9e db3d 4df9 993d
-0.16086435 0.1072359 0.075182535
