1.REINFORCE/models/model_0.49790.pth (torch, 2880 bytes, 4 tensors)

fc1.weight f4 [32, 2]
-0.86190337 0.06268166 -0.38629568 -0.1473935 0.6290682 -0.4249552 0.06872275 -0.54518425
-0.031401336 -0.4849953 0.26771778 0.32150692 0.04164244 0.06073293 0.6396676 0.692511
0.05022353 -0.51551384 0.14097422 0.13874489 0.32359478 0.30355218 -0.6375696 -0.6599716
-0.7690399 0.26660845 -0.5346775 -0.22113448 -0.63557535 -0.79230934 -0.3387849 -0.84898394
-0.5240687 -0.31145516 0.51816773 0.647014 0.07433027 -0.3419652 0.057627905 -0.26985884
0.3354569 -0.18674289 -0.45401832 0.3857724 -0.15755147 0.6391023 0.6116807 0.44424278
0.27448297 0.6805534 -0.36123767 -0.12510067 0.49730605 -0.49376726 0.7722629 0.9760041
0.22698975 0.25808674 -0.15812096 -0.76034874 0.21413046 -0.30605516 0.13911265 0.15844831
00000000: b3a5 5cbf 3e5f 803d 8cc8 c5be 52ee 16be
00000010: 9d0a 213f ba93 d9be 83be 8c3d 3291 0bbf
00000020: b09e 00bd 4e51 f8be 4e12 893e 8e9c a43e
00000030: 4391 2a3d 18c3 783d 41c1 233f 6748 313f
00000040: 30b7 4d3d b7f8 03bf 8c5b 103e 2413 0e3e
00000050: 37ae a53e 316b 9b3e c337 23bf e6f3 28bf
00000060: cddf 44bf e780 883e a0e0 08bf 1471 62be
00000070: 11b5 22bf c9d4 4abf 3775 adbe 0357 59bf
00000080: 5e29 06bf 0d77 9fbe a4a6 043f b6a2 253f
00000090: 783a 983d 1016 afbe 3d0b 6c3d f02a 8abe
000000a0: 02c1 ab3e 8739 3fbe 1775 e8be f683 c53e
000000b0: 2c55 21be 359c 233f 1b97 1c3f ca73 e33e
000000c0: 0889 8c3e bf38 2e3f 25f4 b8be 641a 00be
000000d0: e69e fe3e 10cf fcbe 05b3 453f 68db 793f
000000e0: 0070 683e f223 843e 76ea 21be 37a6 42bf
000000f0: 0445 5b3e 43b3 9cbe 8c73 0e3e 4640 223e

fc1.bias f4 [32]
0.15022092 -0.037201855 0.08200216 0.6286437 -0.31537214 -0.020387948 0.54321235 -0.40759054
-0.40425614 -0.5877995 0.28800845 0.56680745 -0.14024845 -0.612815 -0.031337466 0.29479566
-0.6460472 0.31833857 -0.25508004 0.101701096 0.34682274 -0.5439674 -0.50252664 -0.13319981
0.42662868 -0.4513774 0.050994106 0.44282362 0.016056597 0.6121835 -0.15082943 0.04341667
00000000: 83d3 193e f960 18bd c0f0 a73d cbee 203f
00000010: 7578 a1be a004 a7bc f70f 0b3f b5af d0be
00000020: a9fa cebe 077a 16bf d875 933e 4b1a 113f
00000030: 4a9d 0fbe 72e1 1cbf b75b 00bd 75ef 963e
00000040: 5963 25bf 46fd a23e da99 82be aa48 d03d
00000050: c092 b13e 7341 0bbf 96a5 00bf 8865 08be
00000060: 136f da3e f01a e7be 32df 503d c7b9 e23e
00000070: 2089 833c 0fb8 1c3f 0873 1abe aed5 313d

fc2.weight f4 [3, 32]
0.31746647 0.10130601 -0.014427692 0.021604918 0.1598364 0.13307302 -0.042824082 0.004780397
0.039409027 0.12676011 -0.13383235 0.12653455 0.31958282 -0.096933745 0.17661996 0.19117464
-0.122205965 -0.26391563 -0.05335839 0.0061599743 0.17866613 0.075653896 0.13205712 0.04881364
-0.037480135 0.1542357 0.08914593 -0.16250351 0.16954355 0.20498921 0.1091996 -0.1135661
-0.26543796 -0.17819637 -0.03436923 -0.18894054 -0.13086551 0.046456948 -0.0070734527 -0.08660836
-0.1473382 0.073035285 -0.14027704 -0.05199875 -0.2494248 0.15838839 -0.3299236 -0.15271695
-0.13915503 0.28060088 -0.022562087 -0.040841218 0.14205071 -0.009453714 0.022957638 0.115147784
-0.06664055 -0.10932624 0.07867273 0.24084261 -0.17066406 -0.06023943 -0.048717543 0.12697195
-0.21021582 -0.24553023 0.013622016 -0.19352655 -0.06277592 -0.0031571537 -0.22673345 0.069796234
-0.16747718 0.104770884 -0.030547656 -0.2610164 -0.17012276 0.1721587 -0.32320526 -0.12675866
-0.10849574 0.3701444 -0.109800085 -0.053243533 0.12409137 -0.09765486 0.08626135 0.02776128
0.04251017 0.10109143 0.036301184 0.14025159 0.1373597 -0.12418057 0.166927 -0.23244427
00000000: f78a a23e 8679 cf3d 2062 6cbc ccfc b03c
00000010: 27ac 233e 4b44 083e 4e68 2fbd e0a4 9c3b
00000020: 5c6b 213d 67cd 013e 590b 09be 4692 013e
00000030: 5ca0 a33e 3385 c6bd dddb 343e 49c3 433e
00000040: 1f47 fabd f31f 87be 548e 5abd 9cd9 c93b
00000050: 41f4 363e 6ef0 9a3d fb39 073e d0f0 473d
00000060: c584 19bd f7ef 1d3e 2492 b63d 5267 26be
00000070: d39c 2d3e b1e8 513e 0aa4 df3d 5895 e8bd
00000080: 7ce7 87be 1c79 36be c0c6 0cbd a179 41be
00000090: 9c01 06be a449 3e3d 6cc8 e7bb b95f b1bd
000000a0: d3df 16be 8693 953d c9a4 0fbe a4fc 54bd
000000b0: 3769 7fbe 9130 223e bfeb a8be d561 1cbe
000000c0: a87e 0ebe ebaa 8f3e 20d4 b8bc 1f49 27bd
000000d0: be75 113e c0e3 1abc a811 bc3c 9ad2 eb3d
000000e0: d77a 88bd 70e6 dfbd 2b1f a13d 729f 763e
000000f0: 8fc2 2ebe 9fbd 76bd 0c8c 47bd ef04 023e
00000100: d142 57be 476c 7bbe e02e 5f3c d32b 46be
00000110: a990 80bd 40e8 4ebb d02c 68be 54f1 8e3d
00000120: 237f 2bbe 1e92 d63d 143f fabc f1a3 85be
00000130: a934 2ebe 5f4a 303e 297b a5be 06cd 01be
00000140: 0433 debd 9183 bd3e dede e0bd e415 5abd
00000150: 9e23 fe3d 45ff c7bd caa9 b03d a06b e33c
00000160: 251f 2e3d 0609 cf3d 8db0 143d 1d9e 0f3e
00000170: 05a8 0c3e 6252 febd e9ee 2a3e df05 6ebe

fc2.bias f4 [3]
0.19015715 0.03592166 -0.23530628
00000000: 8eb8 423e 9722 133d 21f4 70be
