1.REINFORCE/models/model_0.20694.pth (torch, 2880 bytes, 4 tensors)

fc1.weight f4 [32, 2]
00000000: 5f64 d5be e9ed 223f 738c 8bbe 1039 c6bd
00000010: 9488 2a3f d17d 753b c866 28bf 4225 e5be
00000020: 7692 c23e fa5a 6fbe df1a 1dbf 945c 13bf
00000030: 564a edbe 08a1 cabe 4442 063f d714 9b3e
00000040: bb56 2a3f 20b3 06be 9ef2 ae3e f214 b23e
00000050: 869f eabe 6a84 243d 32d6 aa3e f4f6 1bbf
00000060: 1d32 d43e b88e 07bd e0e1 063f a491 e0be
00000070: 417a 2e3e f2e3 0fbf cb72 09bf ab13 a53d
00000080: efc2 f63e e10e d03e 0add 323f 1069 96be
00000090: 5099 f9bd fb19 16bf a9e2 d6be b5a4 afbd
000000a0: 38ca 17bf feba 22bf 2055 903d 2081 a43c
000000b0: 74fa 30bf 32b0 a13e e1a7 31be f4f9 cfbe
000000c0: 829e 09bf 7b28 1c3f a7fc 8abe 502e 18bf
000000d0: f082 273e 3450 6c3e b94a 03bf 4964 923e
000000e0: 4916 253f b3e3 c0bd d2fc 42be 0a15 813d
000000f0: 0e33 dc3e a053 c8bc f103 b9be 4822 05bf
-0.4167814 0.6364427 -0.27255592 -0.096788526 0.6661465 0.0037459026 -0.6578183 -0.44754988
0.38002366 -0.23374549 -0.6136913 -0.5756314 -0.46345776 -0.39575982 0.52444863 0.30289337
0.6653859 -0.13154268 0.34169477 0.34781605 -0.45824832 0.040165342 0.33366543 -0.60923696
0.41444483 -0.03309509 0.5268841 -0.43861115 0.17038824 -0.5620719 -0.53690785 0.08060392
0.48195598 0.40636352 0.6986853 -0.2937703 -0.12187445 -0.58633393 -0.41969803 -0.08576337
-0.59292936 -0.6356658 0.07047486 0.020081103 -0.6913216 0.3157974 -0.17349197 -0.40620387
-0.5375749 0.6099927 -0.27145883 -0.5944567 0.16358542 0.2307747 -0.5128589 0.28592137
0.6448713 -0.0941843 -0.19041756 0.06302841 0.43007702 -0.024453938 -0.3613582 -0.52005434

fc1.bias f4 [32]
00000000: 51f0 38be 4602 34bf 0f8f 2e3f 8243 16bf
00000010: c09a 0f3d 73f9 023f 03c4 503e 77a6 663e
00000020: 99e1 2bbf 7e68 a3be fb8b e53e ae8a 1abf
00000030: 8e29 f93e 2e6b d63e 72e8 b53e f856 65bd
00000040: e9a1 a13e 9dc7 1e3f 697f 903e 7db2 bd3e
00000050: 8faf 113f 8919 8fbe 30bc 153f ca25 c53e
00000060: 3205 c73e eed0 cebe 9e3e c3be 0018 3e3e
00000070: d72d d83e f169 3d3e 7d2d 2dbf 810c 123e
-0.18060423 -0.7031597 0.6818704 -0.5869676 0.03505969 0.5116188 0.20387273 0.22524439
-0.6714111 -0.3191566 0.4483336 -0.6036786 0.48664516 0.41878647 0.35528904 -0.055991143
0.3156884 0.62023336 0.28222206 0.37050238 0.56908506 -0.2794917 0.58490276 0.38505393
0.3887115 -0.40393776 -0.3813371 0.18563843 0.42222473 0.18497445 -0.67647535 0.14262582

fc2.weight f4 [3, 32]
00000000: e66e 99bd 20a4 1bbe 077f 82bd c8e8 1d3d
00000010: e102 35be 2864 c9bd 242e 963d 2a8d b13d
00000020: 9e27 b93d 8241 acbd 1b7e 9c3c 3b7b 0ebe
00000030: c016 c8bd 1e7f efbd 2183 d1ba 7094 32be
00000040: 7724 b0bd af37 713d d439 fd3d f3f3 b43d
00000050: bf2f b63d e3c2 013e 78f3 30be 3301 023d
00000060: fb3d ad3d 9218 c83d d47e 323d 2481 29be
00000070: b709 e53d f359 13bd 42c5 d13d 5673 c3bb
00000080: 14d2 b0bd 20fd 2fbd a298 093e e91e 1bbe
00000090: 10a1 58bc c814 393e 6960 4f3e 6250 07bd
000000a0: 9288 1abe 1a00 b83d 568a a7bd 4cc8 c4bd
000000b0: 90b0 cfbd 912a 033e 6ec9 293d 1898 24bd
000000c0: c54f b33c 0017 ddbc 4094 503e c761 253e
000000d0: 789d a0bb c86f 713d 1608 72bd 05c5 a53d
000000e0: e7d9 dabd b053 98bc d8d7 393d 183a 0c3e
000000f0: 89ba c3bd 1d10 803d 3520 82bd 58e6 c6bd
00000100: 1fc5 3ebd 63b5 15be 360e 06be 7418 26be
00000110: ac34 0fbe 095c 403e d0ff 2d3e 124e 02be
00000120: 4673 0cbe d37b 083e f679 0abe 8897 26bd
00000130: 6af4 0d3d 885d 843d 58c4 d83d 0816 eb3b
00000140: 6ee6 e9bd 0fb9 393e f513 49bd 7d55 5ebd
00000150: 8a23 dfbd 78eb 5ebd b183 fb3d 36cb 8cbc
00000160: dda2 1d3e 89f3 163e 7a2e fc3d 1cb2 443c
00000170: c764 313e 3579 453d e448 18bd c96b 02be
-0.07491855 -0.15199327 -0.06371885 0.038552076 -0.1767688 -0.098335564 0.073330194 0.08669503
0.090407595 -0.08410932 0.0191031 -0.13914196 -0.09769964 -0.116941676 -0.0015984514 -0.17439437
-0.08600705 0.058890995 0.123645455 0.08835592 0.088958256 0.12672 -0.17280376 0.031739425
0.084590875 0.097703114 0.043577984 -0.1655317 0.111834936 -0.035974454 0.10242702 -0.005964677
-0.08633819 -0.04296601 0.13437131 -0.1514851 -0.013221994 0.18074334 0.20251621 -0.033035643
-0.1509116 0.08984394 -0.08180682 -0.09608516 -0.101410985 0.12809207 0.041451864 -0.04018411
0.021888623 -0.026988506 0.20369053 0.1615058 -0.0049015842 0.058944494 -0.059089743 0.08094219
-0.10686093 -0.018594593 0.04537186 0.13694036 -0.09557063 0.06253073 -0.06353799 -0.09711903
-0.046574708 -0.14619975 -0.13091359 -0.16220266 -0.13984936 0.18785109 0.16992116 -0.12725094
-0.13715848 0.13328485 -0.13523087 -0.040671855 0.03465692 0.06463152 0.105843246 0.007174257
-0.11420904 0.18137 -0.049091298 -0.054280747 -0.108954504 -0.05442378 0.122809775 -0.017186742
0.15394159 0.14741339 0.12313552 0.012005355 0.173236 0.048211295 -0.03717889 -0.1273643

fc2.bias f4 [3]
00000000: e89d 89bd a14f 093e 6262 37bd
-0.06719571 0.13409282 -0.04477156
