1.REINFORCE/models/model_0.36863.pth (torch, 2880 bytes, 4 tensors)

fc1.weight f4 [32, 2]
000000 63 79 49 bf 0d e8 c0 3e 68 9f 9f be a3 24 3e 3e
       -0.78700846 0.3767704 -0.31176305 0.18568663
000010 9d 0a 21 3f ba 93 d9 be 90 25 d7 3d 19 dd 83 be
       0.6290682 -0.4249552 0.10505211 -0.25754622
000020 b0 9e 00 bd 4e 51 f8 be 4e 12 89 3e 8e 9c a4 3e
       -0.031401336 -0.4849953 0.26771778 0.32150692
000030 61 2f 80 bc 1b 18 f4 bc 41 c1 23 3f 67 48 31 3f
       -0.015647592 -0.02979665 0.6396676 0.692511
000040 30 b7 4d 3d b7 f8 03 bf 8c 5b 10 3e 24 13 0e 3e
       0.05022353 -0.51551384 0.14097422 0.13874489
000050 94 0d 36 3e 18 74 54 3c 8d b0 1a bf 67 a7 c0 be
       0.17778617 0.012967132 -0.60425645 -0.37627718
000060 af 6a 30 bf ac 90 15 3f a0 e0 08 bf 14 71 62 be
       -0.68912786 0.58423877 -0.5346775 -0.22113448
000070 50 e5 0e bf bd 80 ec be 3b c3 8c be f9 02 09 bf
       -0.55818653 -0.4619197 -0.274927 -0.5352016
000080 5e 29 06 bf 0d 77 9f be 08 bf d3 3e 9e e0 a1 3e
       -0.5240687 -0.31145516 0.41356683 0.31616682
000090 78 3a 98 3d 10 16 af be 0f f1 0d 3c 50 36 bc bd
       0.07433027 -0.3419652 0.00866343 -0.09190047
0000a0 dd df 87 3e 04 4a ef bd 17 75 e8 be f6 83 c5 3e
       0.26537982 -0.11684039 -0.45401832 0.3857724
0000b0 2c 55 21 be 35 9c 23 3f 1b 97 1c 3f ca 73 e3 3e
       -0.15755147 0.6391023 0.6116807 0.44424278
0000c0 f4 98 01 3e b6 20 c2 3e 25 f4 b8 be 64 1a 00 be
       0.12656003 0.3791558 -0.36123767 -0.12510067
0000d0 fe 83 de 3e 8c 5f 09 bf 7b 49 2b 3f af 8d 35 3f
       0.43460077 -0.5366142 0.66909 0.70919317
0000e0 00 70 68 3e f2 23 84 3e 20 6c d5 bd 58 25 e7 be
       0.22698975 0.25808674 -0.10421014 -0.4514568
0000f0 04 45 5b 3e 43 b3 9c be 61 8e e3 3d 1d 6c fc 3d
       0.21413046 -0.30605516 0.11111141 0.123253085

fc1.bias f4 [32]
000000 f1 82 f6 3d f8 42 4d bd c0 f0 a7 3d d6 24 26 3f
       0.12036694 -0.050112695 0.08200216 0.6489996
000010 75 78 a1 be a0 04 a7 bc 04 ff 22 3f b5 af d0 be
       -0.31537214 -0.020387948 0.6367037 -0.40759054
000020 a9 fa ce be 07 7a 16 bf 11 45 bf 3e b4 87 1b 3f
       -0.40425614 -0.5877995 0.3735738 0.6075394
000030 47 de 3e be 72 e1 1c bf 8b 89 6d bd 88 69 90 3e
       -0.1863948 -0.612815 -0.0579925 0.28205514
000040 59 63 25 bf e8 c9 be 3e da 99 82 be 44 5c 4b 3e
       -0.6460472 0.37263417 -0.25508004 0.19859415
000050 c9 a7 eb 3e 73 41 0b bf 96 a5 00 bf 88 65 08 be
       0.46026447 -0.5439674 -0.50252664 -0.13319981
000060 89 d0 04 3f f0 1a e7 be 38 fe e8 3d f1 6e 04 3f
       0.518807 -0.4513774 0.113766134 0.51731783
000070 20 89 83 3c 5b fd 1e 3f 08 73 1a be 38 95 99 3d
       0.016056597 0.6210534 -0.15082943 0.07499164

fc2.weight f4 [3, 32]
000000 83 ce 7f 3e 91 1a 06 3d 20 62 6c bc 42 d6 1a bc
       0.24981122 0.03274018 -0.014427692 -0.009450497
000010 27 ac 23 3e 4b 44 08 3e d7 69 ab bd e0 a4 9c 3b
       0.1598364 0.13307302 -0.08369797 0.004780397
000020 5c 6b 21 3d 67 cd 01 3e a5 6f 00 be f4 a3 8d 3d
       0.039409027 0.12676011 -0.12542589 0.06916037
000030 30 a1 6c 3e 33 85 c6 bd de 17 b8 3d 88 b4 0b 3e
       0.23108363 -0.096933745 0.08988927 0.13643086
000040 1f 47 fa bd cb 72 5c be 54 8e 5a bd 84 1c 13 3b
       -0.122205965 -0.21528165 -0.05335839 0.0022447417
000050 e9 74 37 3e 6e f0 9a 3d fb 39 07 3e d0 f0 47 3d
       0.17915691 0.075653896 0.13205712 0.04881364
000060 e5 f8 59 bd f7 ef 1d 3e f9 ca 1a 3e 3f 73 98 bd
       -0.05321588 0.1542357 0.1511649 -0.074438564
000070 d3 9c 2d 3e 3c 26 25 3e 0a a4 df 3d 83 d8 d8 bd
       0.16954355 0.16127867 0.1091996 -0.10588171
000080 96 45 54 be 36 2e 00 be c0 c6 0c bd b0 7f 03 be
       -0.2072967 -0.12517628 -0.03436923 -0.12841678
000090 9c 01 06 be a4 49 3e 3d 4e 82 5f 3d b9 5f b1 bd
       -0.13086551 0.046456948 0.054567628 -0.08660836
0000a0 d3 df 16 be 86 93 95 3d 57 bc fa bd ce c4 43 3c
       -0.1473382 0.073035285 -0.12242954 0.011948777
0000b0 95 3f 50 be 91 30 22 3e a8 05 8a be 3d 49 b8 bd
       -0.20336755 0.15838839 -0.2695744 -0.08998344
0000c0 a8 7e 0e be af d1 a3 3e 20 d4 b8 bc e9 3b 92 bc
       -0.13915503 0.31995913 -0.022562087 -0.017850833
0000d0 52 46 3c 3e c0 e3 1a bc a8 11 bc 3c 9a d2 eb 3d
       0.183862 -0.009453714 0.022957638 0.115147784
0000e0 84 3e e5 bc 70 e6 df bd 98 ae 88 3c 7b 74 85 3e
       -0.027983911 -0.10932624 0.016684815 0.2606543
0000f0 8f c2 2e be 36 01 65 3b 0c 8c 47 bd ca 17 08 3e
       -0.17066406 0.0034943349 -0.048717543 0.13290325
000100 c0 3e 45 be 6a 17 5f be e0 2e 5f 3c c1 9e 74 be
       -0.19262218 -0.21786276 0.013622016 -0.23888685
000110 a9 90 80 bd 40 e8 4e bb ce b2 83 be 54 f1 8e 3d
       -0.06277592 -0.0031571537 -0.25722355 0.069796234
000120 23 7f 2b be 1e 92 d6 3d 5f fc 89 bd 79 f3 89 be
       -0.16747718 0.104770884 -0.06737589 -0.26943567
000130 ab ce c0 bd 5f 4a 30 3e 05 3c 8d be 5d 13 0d be
       -0.09414419 0.1721587 -0.27584854 -0.13776918
000140 04 33 de bd 19 2f 66 3e de de e0 bd 18 a5 a8 bd
       -0.10849574 0.22478904 -0.109800085 -0.08234614
000150 01 9e 70 3d 45 ff c7 bd ca a9 b0 3d a0 6b e3 3c
       0.058744434 -0.09765486 0.08626135 0.02776128
000160 d3 23 1e 3c 06 09 cf 3d 00 63 38 bc ba 08 d2 bc
       0.009652096 0.10109143 -0.011254072 -0.025638927
000170 05 a8 0c 3e 2d 0f 1e be e9 ee 2a 3e c1 b1 7f be
       0.1373597 -0.15435477 0.166927 -0.24970151

fc2.bias f4 [3]
000000 4b 3e 18 3e 1c ec cc 3d 9b d8 89 be
       0.14867513 0.10005972 -0.2692307
