1.REINFORCE/models/model_0.35276.pth (torch, 2880 bytes, 4 tensors)

fc1.weight f4 [32, 2]
-0.34431815 0.8950094 -0.27255592 -0.096788526 0.7929136 -0.30010918 -0.6578183 -0.44754988
0.38002366 -0.23374549 -0.53787047 -0.16620977 -0.325525 -0.049265955 0.5867216 0.20480385
0.6653859 -0.13154268 0.34169477 0.34781605 -0.38134164 -0.28835818 0.33366543 -0.60923696
0.42675003 0.4270509 0.64707255 -0.2909108 0.23152952 -0.12243581 -0.47211683 0.5366022
0.6309225 0.36642215 0.6792176 0.112666726 -0.0036379737 -1.0201088 -0.283481 -0.5040776
-0.51689965 -1.0524434 0.07047486 0.020081103 -0.6736279 0.82152915 0.062531695 -0.648561
-0.5708015 0.97187716 -0.27145883 -0.5944567 0.16358542 0.2307747 -0.40168497 0.51940405
0.64369124 0.1574469 -0.06164911 0.43892348 0.43007702 -0.024453938 -0.2663667 -0.8007801
00000000: 784a b0be 561f 653f 738c 8bbe 1039 c6bd
00000010: 63fc 4a3f e9a7 99be c866 28bf 4225 e5be
00000020: 7692 c23e fa5a 6fbe e1b1 09bf e532 2abe
00000030: 36ab a6be 19cb 49bd 6333 163f 1ab8 513e
00000040: bb56 2a3f 20b3 06be 9ef2 ae3e f214 b23e
00000050: 363f c3be afa3 93be 32d6 aa3e f4f6 1bbf
00000060: fb7e da3e 6aa6 da3e 8ca6 253f 43f2 94be
00000070: 1316 6d3e a0bf fabd 4cb9 f1be c35e 093f
00000080: 2384 213f af9b bb3e 34e1 2d3f d0bd e63d
00000090: 126b 6ebb ed92 82bf 6c24 91be 3b0b 01bf
000000a0: 8953 04bf 77b6 86bf 2055 903d 2081 a43c
000000b0: e172 2cbf bc4f 523f 9e10 803d 1808 26bf
000000c0: 0c20 12bf f1cc 783f a7fc 8abe 502e 18bf
000000d0: f082 273e 3450 6c3e a7a9 cdbe aaf7 043f
000000e0: f3c8 243f c339 213e c783 7cbd 94ba e03e
000000f0: 0e33 dc3e a053 c8bc 3761 88be edff 4cbf

fc1.bias f4 [32]
-0.24615987 -0.7031597 0.5485518 -0.5869676 0.03505969 0.436995 0.06959997 0.14602321
-0.6714111 -0.3191566 0.3816704 -0.6036786 0.4843273 0.28887796 0.30199066 -0.11378813
0.16056648 0.64939827 0.15708742 0.22900721 0.49265638 -0.2794917 0.5800503 0.15705664
0.4361072 -0.40393776 -0.3813371 0.06807494 0.44433936 0.06211494 -0.67647535 0.060571913
00000000: 5511 7cbe 4602 34bf e46d 0c3f 8243 16bf
00000010: c09a 0f3d cfbd df3e 6e8a 8e3d 1c87 153e
00000020: 99e1 2bbf 7e68 a3be 4d6a c33e ae8a 1abf
00000030: bff9 f73e d0e7 933e 859e 9a3e c009 e9bd
00000040: 8a6b 243e f73e 263f 86db 203e de80 6a3e
00000050: 753d fc3e 8919 8fbe 2d7e 143f 75d3 203e
00000060: 7149 df3e eed0 cebe 9e3e c3be e06a 8b3d
00000070: 7380 e33e 3c6c 7e3d 7d2d 2dbf 411a 783d

fc2.weight f4 [3, 32]
-0.102821834 -0.15199327 -0.024662862 0.038552076 -0.1767688 -0.042759873 0.12867369 0.035265334
0.090407595 -0.08410932 0.05160345 -0.13914196 -0.041095663 -0.034420554 0.060369126 -0.11637843
-0.10671104 0.11595516 0.15562855 0.12321327 0.12769172 0.12672 -0.12149712 0.057120707
0.12901634 0.097703114 0.043577984 -0.11476075 0.15015636 0.01666202 0.10242702 0.013204353
-0.07549856 -0.04296601 0.026238997 -0.1514851 -0.013221994 0.093540214 0.12759365 -0.08626826
-0.1509116 0.08984394 -0.15983422 -0.09608516 -0.18255989 0.03765731 -0.028733667 -0.10586071
-0.0062196255 -0.109678745 0.12105818 0.077201106 -0.08612731 0.058944494 -0.14708588 0.014909344
-0.18973725 -0.018594593 0.04537186 0.04933878 -0.16518806 -0.003979231 -0.06353799 -0.14527634
-0.012061471 -0.14619975 -0.051393162 -0.16220266 -0.13984936 0.23298433 0.19951615 -0.04773688
-0.13715848 0.13328485 -0.08000243 -0.040671855 0.07493014 0.09281533 0.12906183 0.02058557
-0.0656319 0.22329444 0.011066197 0.004661618 -0.05509575 -0.05442378 0.17242219 0.029110368
0.2052156 0.14741339 0.12313552 0.058141 0.20545556 0.06985685 -0.03717889 -0.0917436
00000000: 4194 d2bd 20a4 1bbe c509 cabc c8e8 1d3d
00000010: e102 35be fa24 2fbd 09c3 033e 6272 103d
00000020: 9e27 b93d 8241 acbd 245e 533d 3b7b 0ebe
00000030: ed53 28bd 91fc 0cbd 9e45 773d d057 eebd
00000040: 518b dabd e679 ed3d 175d 1f3e 3d57 fc3d
00000050: 9ec1 023e e3c2 013e 7bd3 f8bd 67f7 693d
00000060: dc1c 043e 9218 c83d d47e 323d af07 ebbd
00000070: 97c2 193e ca7e 883c 42c5 d13d 1257 583c
00000080: fd9e 9abd 20fd 2fbd 2af3 d63c e91e 1bbe
00000090: 10a1 58bc 0392 bf3d e9a7 023e 6aad b0bd
000000a0: 9288 1abe 1a00 b83d 95ab 23be 4cc8 c4bd
000000b0: fbf0 3abe 8d3e 1a3d de62 ebbc 80cd d8bd
000000c0: 00ce cbbb 409f e0bd 5aed f73d 9d1b 9e3d
000000d0: 8463 b0bd c86f 713d ae9d 16be 5246 743c
000000e0: 7b4a 42be b053 98bc d8d7 393d 7617 4a3d
000000f0: 0f27 29be 3664 82bb 3520 82bd 52c3 14be
00000100: 7a9d 45bc 63b5 15be a381 52bd 7418 26be
00000110: ac34 0fbe 7293 6e3e f64d 4c3e bf87 43bd
00000120: 4673 0cbe d37b 083e 50d8 a3bd 8897 26bd
00000130: f974 993d f715 be3d c928 043e 12a3 a83c
00000140: 056a 86bd 4ca7 643e ff4e 353c 7cc0 983b
00000150: 15ac 61bd 78eb 5ebd 718f 303e de78 ee3c
00000160: 0a24 523e 89f3 163e 7a2e fc3d 4225 6e3d
00000170: f162 523e 1c11 8f3d e448 18bd 12e4 bbbd

fc2.bias f4 [3]
-0.017664833 0.040370476 0.014216073
00000000: d7b5 90bc 835b 253d 88ea 683c
