1.REINFORCE/models/model_0.03667.pth (torch, 2880 bytes, 4 tensors)

fc1.weight f4 [32, 2]
0	0x3d46767a	0.04845283
1	0xbe6011da	-0.2188181
2	0x3e659d3c	0.22423261
3	0xbe110490	-0.14161897
4	0xbc99fa67	-0.018796159
5	0xbc7601cc	-0.015015077
6	0x3e26d6c1	0.1629286
7	0xbe01399e	-0.12619635
8	0xbe1c2b74	-0.15250951
9	0x3d66e401	0.056369785
10	0xbec54af5	-0.3853375
11	0xbedbbd7b	-0.42918
12	0x3f1052bf	0.5637626
13	0x3f32a08b	0.6977622
14	0x3e317595	0.1733001
15	0xbf190bf7	-0.5978388
16	0x3ee2dd7e	0.4430961
17	0xbedc9572	-0.43082768
18	0xbe03a0c0	-0.1285429
19	0xbe69020c	-0.22754687
20	0xbe6bc5ee	-0.23024723
21	0x3deb7c90	0.11498368
22	0xbeb6dcbc	-0.35715282
23	0x3e9a570f	0.30144545
24	0xbe25d23b	-0.16193478
25	0x3e1a5208	0.15070355
26	0xbe77dbe4	-0.24204975
27	0xbee2c887	-0.44293615
28	0x3f158141	0.5840035
29	0x3e88ed18	0.26743388
30	0x3f0a6acb	0.54069203
31	0xbdd60100	-0.104494095
32	0xbf15e677	-0.58554786
33	0xbf113ebd	-0.56736356
34	0x3f228bdb	0.6349465
35	0x3d41bbb0	0.047298133
36	0x3c9b7290	0.018975526
37	0xbe8668b5	-0.2625176
38	0xbed1a154	-0.40943396
39	0x3f1b5a25	0.60684425
40	0x3f138c19	0.5763565
41	0x3e68a164	0.22717816
42	0xbe99d0b9	-0.30042055
43	0x3daeba35	0.0853161
44	0xbf1bc2b4	-0.6084397
45	0xbf154470	-0.5830755
46	0xbe479afc	-0.19492716
47	0xbe815e1c	-0.25267112
48	0xbf205e8b	-0.6264426
49	0xbe007dbd	-0.12547965
50	0xbe5b4c4a	-0.2141582
51	0x3ebfb7a5	0.37444797
52	0xbea7d3bd	-0.3277873
53	0xbe13c8e4	-0.14432102
54	0x3e8f4b38	0.27987075
55	0xbeecd443	-0.46255693
56	0x3e79f6b0	0.2441051
57	0x3e56d294	0.20978767
58	0xbdb4e126	-0.08832006
59	0xbecf3f43	-0.40477952
60	0xbe9f9d63	-0.31174764
61	0x3f234015	0.63769656
62	0x3b8cd110	0.004297383
63	0x3ea689d4	0.3252703

fc1.bias f4 [32]
0	0x3f232972	0.63735116
1	0x3cc36ba0	0.02385503
2	0x3e510f62	0.20416024
3	0x3e9b2f8a	0.30309707
4	0x3ef79ce8	0.48361897
5	0x3ec5d9ed	0.38642827
6	0x3e396130	0.1810348
7	0x3ebd7910	0.37006426
8	0xbe838fba	-0.25695592
9	0xbf0ce206	-0.55032384
10	0xbe123ce8	-0.14281046
11	0x3d8a6a75	0.06758586
12	0x3ead5c4b	0.33859476
13	0xbf2d531b	-0.67704934
14	0xbe266d88	-0.1625272
15	0xbdb76868	-0.08955461
16	0x3d246341	0.04013372
17	0xbebc4145	-0.36768547
18	0x3f193acf	0.5985536
19	0x3f288f4c	0.65843654
20	0xbf2af0d1	-0.66773707
21	0xbdfd1ad7	-0.12358635
22	0xbeb40fca	-0.35168296
23	0xbf2aa1e0	-0.6665325
24	0xbd5a552a	-0.053303875
25	0xbd956c7c	-0.072960824
26	0x3cf5f86e	0.030025687
27	0xbd1eb030	-0.038742244
28	0x3ec30e43	0.38096818
29	0x3f21209b	0.62940377
30	0x3d973456	0.07383029
31	0x3e479e1a	0.19493905

fc2.weight f4 [3, 32]
0	0xbde2baa9	-0.11070759
1	0xbe1e3ab4	-0.15452081
2	0x3d85edfa	0.06539531
3	0xbe227d6c	-0.15868157
4	0x3d9d3182	0.076754585
5	0x3e2c1201	0.16803743
6	0xbe065634	-0.13118821
7	0xbddb2ba2	-0.10701682
8	0xbd940b66	-0.072287366
9	0x3dc7629e	0.097356066
10	0x3dc207b6	0.09474127
11	0xbcd4e38c	-0.025987409
12	0xbd85469a	-0.06507607
13	0x3db7bad2	0.0897118
14	0x3df1fb1a	0.11815472
15	0xbe344076	-0.17602715
16	0xbda93839	-0.08262677
17	0xbdf49cca	-0.11943968
18	0xbe27b9a6	-0.16379413
19	0x3deb2593	0.11481776
20	0xbe0e8056	-0.13916144
21	0xbe2dfa1d	-0.16989942
22	0x3c94b857	0.018154306
23	0xbe2529ad	-0.1612918
24	0xbd892cb8	-0.066979825
25	0xbd3f6d11	-0.046734873
26	0x3e0caaf9	0.13737096
27	0x3e1f80db	0.15576498
28	0xbde88e47	-0.11355262
29	0xbe16d8a0	-0.14731073
30	0xbdac6de3	-0.08419397
31	0xbe3515d8	-0.17684114
32	0xbe1576bb	-0.14596073
33	0xbd9a8f77	-0.07546895
34	0x3df20cfb	0.11818882
35	0x3df027f2	0.11726369
36	0xbe22fb64	-0.1591621
37	0xbe123da4	-0.14281327
38	0xbe2c6cae	-0.16838333
39	0xbd8e3d37	-0.069452696
40	0xbd3530fc	-0.04423617
41	0xbdd09bcc	-0.10185966
42	0x3e2a3367	0.16621171
43	0x3d8b7e4a	0.06811197
44	0xbdce14f3	-0.100625895
45	0xbd903c9e	-0.07042812
46	0x3cd1f240	0.02562821
47	0x3e18877d	0.14895435
48	0x3ca34e5a	0.019934822
49	0xbe274226	-0.16333827
50	0x3d285958	0.04110083
51	0x3cc0584a	0.0234796
52	0xbe2ad698	-0.16683424
53	0xbe389dfe	-0.18029019
54	0x3dfadf12	0.122495785
55	0x3de8ab9e	0.113608584
56	0x3d9e57cf	0.07731592
57	0x3e0526fb	0.13003151
58	0x3bd69e64	0.0065496434
59	0xbe33a89f	-0.17544793
60	0x3db3c662	0.08778073
61	0xbcb1df8a	-0.021713037
62	0xbe255084	-0.16143996
63	0x3cfc1c9f	0.030775366
64	0xbe192f85	-0.14959534
65	0xbd59e63e	-0.05319809
66	0x3c7183ea	0.014740923
67	0x3e150ce5	0.145557
68	0x3da03603	0.07822802
69	0x3e3669c5	0.17813785
70	0x3e130e69	0.14360966
71	0x3de254bc	0.11051318
72	0x3e1fe0f7	0.15613161
73	0xbdebc9ac	-0.11513075
74	0xbde192f5	-0.11014358
75	0xbe17071b	-0.14748804
76	0xbcdfd1ef	-0.027321784
77	0x3e2d2293	0.1690772
78	0x3dc346da	0.09534998
79	0x3e259e31	0.16173626
80	0xbc85ac18	-0.016317412
81	0x3dd0350a	0.101663664
82	0xbdb7e1fc	-0.0897865
83	0x3daddb61	0.08489109
84	0xbdcc0449	-0.09961755
85	0x3e211bd8	0.15733278
86	0xbc91d3a8	-0.01780112
87	0xbd930009	-0.07177741
88	0x3e078314	0.13233596
89	0x3e2fb403	0.17158513
90	0xbdc7a775	-0.09748737
91	0x3dd8b80e	0.10581981
92	0xbda98cc4	-0.08278802
93	0xbe2432b5	-0.16034968
94	0x3e25a1e5	0.16175039
95	0xbd8c36bb	-0.068463765

fc2.bias f4 [3]
0	0x3e08ee7e	0.13372228
1	0x3dff39ed	0.1246222
2	0xbda91c84	-0.08257392
