1.REINFORCE/models/model_0.31958.pth (torch, 2880 bytes, 4 tensors)

fc1.weight f4 [32, 2]
000000 00 70 42 bf 13 31 d6 3e 1f 3a 9e be 38 8f 70 3e
       -0.7595215 0.41834316 -0.30903718 0.23492134
000010 9d 0a 21 3f ba 93 d9 be d7 83 f4 3d 07 d1 4f be
       0.6290682 -0.4249552 0.11939209 -0.20294581
000020 b0 9e 00 bd 4e 51 f8 be 4e 12 89 3e 8e 9c a4 3e
       -0.031401336 -0.4849953 0.26771778 0.32150692
000030 c8 85 42 bd 80 f8 c3 bc 41 c1 23 3f 67 48 31 3f
       -0.047490865 -0.023922205 0.6396676 0.692511
000040 30 b7 4d 3d b7 f8 03 bf 8c 5b 10 3e 24 13 0e 3e
       0.05022353 -0.51551384 0.14097422 0.13874489
000050 81 14 31 3e a1 eb 7b 3b ba c1 1c bf 11 c8 a8 be
       0.17292978 0.0038440006 -0.61233103 -0.3296514
000060 02 24 28 bf 7e 61 20 3f a0 e0 08 bf 14 71 62 be
       -0.65679944 0.6264876 -0.5346775 -0.22113448
000070 2a 25 08 bf e5 7a d3 be c9 33 81 be f9 d2 f8 be
       -0.5318171 -0.413047 -0.2523482 -0.4859846
000080 5e 29 06 bf 0d 77 9f be c3 fb ec 3e 7d fc 88 3e
       -0.5240687 -0.31145516 0.4628583 0.26755133
000090 78 3a 98 3d 10 16 af be 0e df 0e bb 84 c7 46 bd
       0.07433027 -0.3419652 -0.0021800431 -0.048530117
0000a0 b1 95 84 3e 9e 55 83 bd 17 75 e8 be f6 83 c5 3e
       0.25895455 -0.064128146 -0.45401832 0.3857724
0000b0 2c 55 21 be 35 9c 23 3f 1b 97 1c 3f ca 73 e3 3e
       -0.15755147 0.6391023 0.6116807 0.44424278
0000c0 26 3d de 3d 1f 80 b9 3e 25 f4 b8 be 64 1a 00 be
       0.10851507 0.3623056 -0.36123767 -0.12510067
0000d0 fe 83 de 3e 8c 5f 09 bf 26 3c 24 3f ac 41 2f 3f
       0.43460077 -0.5366142 0.6415428 0.6845958
0000e0 00 70 68 3e f2 23 84 3e 0a 6c bb bd 2a 48 cb be
       0.22698975 0.25808674 -0.09151466 -0.39703494
0000f0 04 45 5b 3e 43 b3 9c be da 38 8e 3d 95 6f e7 3d
       0.21413046 -0.30605516 0.06944437 0.113005795

fc1.bias f4 [32]
000000 f6 fa 09 3e 8b 3f 52 bc c0 f0 a7 3d 56 03 2d 3f
       0.1347464 -0.012832533 0.08200216 0.67583215
000010 75 78 a1 be a0 04 a7 bc 61 fe 28 3f b5 af d0 be
       -0.31537214 -0.020387948 0.6601315 -0.40759054
000020 a9 fa ce be 07 7a 16 bf 1d 30 c7 3e 10 d4 23 3f
       -0.40425614 -0.5877995 0.38903895 0.63995457
000030 fd 97 31 be 72 e1 1c bf a1 f8 1f bd 18 66 9b 3e
       -0.17343135 -0.612815 -0.03905547 0.3035133
000040 59 63 25 bf ac e4 94 3e da 99 82 be 94 c6 7b 3e
       -0.6460472 0.29080713 -0.25508004 0.2458747
000050 75 1f ff 3e 73 41 0b bf 96 a5 00 bf 88 65 08 be
       0.49828687 -0.5439674 -0.50252664 -0.13319981
000060 62 0a 09 3f f0 1a e7 be 38 fe e8 3d 8f 89 03 3f
       0.5353147 -0.4513774 0.113766134 0.5138177
000070 20 89 83 3c c8 b6 25 3f 08 73 1a be 90 a0 c1 3d
       0.016056597 0.6473203 -0.15082943 0.09454453

fc2.weight f4 [3, 32]
000000 92 e9 6b 3e cc 78 9a 3b 20 62 6c bc 4d 15 a8 3b
       0.23038319 0.004714107 -0.014427692 0.0051294924
000010 27 ac 23 3e 4b 44 08 3e f8 12 a0 bd e0 a4 9c 3b
       0.1598364 0.13307302 -0.07816118 0.004780397
000020 5c 6b 21 3d 67 cd 01 3e bd c9 d6 bd 29 f8 81 3d
       0.039409027 0.12676011 -0.10487697 0.06346161
000030 8e ec 38 3e 33 85 c6 bd f0 40 67 3d ed 0c 08 3e
       0.18058988 -0.096933745 0.056458414 0.13286181
000040 1f 47 fa bd 72 1b a7 bd 54 8e 5a bd d3 a5 47 3c
       -0.122205965 -0.08159532 -0.05335839 0.012185532
000050 3f ec 53 3e 6e f0 9a 3d fb 39 07 3e d0 f0 47 3d
       0.2069559 0.075653896 0.13205712 0.04881364
000060 ae b7 25 bd f7 ef 1d 3e f9 ca 1a 3e 1d ef dd 3b
       -0.040458374 0.1542357 0.1511649 0.0067728893
000070 d3 9c 2d 3e cf 4e 2b 3e 0a a4 df 3d 42 a2 c0 bd
       0.16954355 0.16729282 0.1091996 -0.09405948
000080 67 1d 35 be 3d 36 a9 bd c0 c6 0c bd 1b ba 01 be
       -0.17686997 -0.08262298 -0.03436923 -0.1266865
000090 9c 01 06 be a4 49 3e 3d 7f cf 78 3d b9 5f b1 bd
       -0.13086551 0.046456948 0.06074476 -0.08660836
0000a0 d3 df 16 be 86 93 95 3d 16 b0 04 be f6 7b e7 3c
       -0.1473382 0.073035285 -0.12957796 0.028257351
0000b0 dc 08 0f be 91 30 22 3e a6 e9 62 be 1b f7 93 bd
       -0.13968223 0.15838839 -0.22159442 -0.07224866
0000c0 a8 7e 0e be 15 aa 61 3e 20 d4 b8 bc 2b 2e 4c bc
       -0.13915503 0.22037537 -0.022562087 -0.012462179
0000d0 56 9c 34 3e c0 e3 1a bc a8 11 bc 3c 9a d2 eb 3d
       0.17637762 -0.009453714 0.022957638 0.115147784
0000e0 36 24 ef bc 70 e6 df bd 98 ae 88 3c a1 b3 55 3e
       -0.029192071 -0.10932624 0.016684815 0.20869304
0000f0 8f c2 2e be 73 e8 3d 3c 0c 8c 47 bd 64 75 05 3e
       -0.17066406 0.011591065 -0.048717543 0.13033062
000100 13 2b 51 be dd a2 6c be e0 2e 5f 3c 45 e1 86 be
       -0.20426588 -0.23109002 0.013622016 -0.26343742
000110 a9 90 80 bd 40 e8 4e bb ef 39 8c be 54 f1 8e 3d
       -0.06277592 -0.0031571537 -0.2738795 0.069796234
000120 23 7f 2b be 1e 92 d6 3d 6a a3 ae bd ee 36 91 be
       -0.16747718 0.104770884 -0.085272625 -0.2836222
000130 9c b3 c0 bd 5f 4a 30 3e 36 f7 91 be 73 0f 21 be
       -0.09409258 0.1721587 -0.2850892 -0.1572855
000140 04 33 de bd b0 28 2e 3e de de e0 bd 65 29 d5 bd
       -0.10849574 0.17007709 -0.109800085 -0.10408286
000150 49 a3 ea 3c 45 ff c7 bd ca a9 b0 3d a0 6b e3 3c
       0.028642314 -0.09765486 0.08626135 0.02776128
000160 77 db d0 bb 06 09 cf 3d 00 63 38 bc 42 98 79 bd
       -0.0063738185 0.10109143 -0.011254072 -0.06093622
000170 05 a8 0c 3e 59 32 33 be e9 ee 2a 3e 0d e6 85 be
       0.1373597 -0.17499675 0.166927 -0.26152077

fc2.bias f4 [3]
000000 b0 c9 20 3e 48 8c d4 3d c0 d7 92 be
       0.15701938 0.10378319 -0.2868023
