1.REINFORCE/models/model_0.37480.pth (torch, 2880 bytes, 4 tensors)

fc1.weight f4 [32, 2]
000000 e9 ba 48 bf 48 bb bd 3e d6 f7 9e be d9 54 37 3e
       -0.784102 0.37056947 -0.3104846 0.1790346
000010 9d 0a 21 3f ba 93 d9 be e1 0c d8 3d 75 1d 87 be
       0.6290682 -0.4249552 0.105493315 -0.2638966
000020 b0 9e 00 bd 4e 51 f8 be 4e 12 89 3e 8e 9c a4 3e
       -0.031401336 -0.4849953 0.26771778 0.32150692
000030 b3 87 a6 bc 27 27 f5 bc 41 c1 23 3f 67 48 31 3f
       -0.020328378 -0.029925896 0.6396676 0.692511
000040 30 b7 4d 3d b7 f8 03 bf 8c 5b 10 3e 24 13 0e 3e
       0.05022353 -0.51551384 0.14097422 0.13874489
000050 f3 8b 38 3e 46 fa 84 3c c4 46 1b bf 46 bf c3 be
       0.18022136 0.01623262 -0.60654855 -0.38231868
000060 a7 6b 2f bf af f9 13 3f a0 e0 08 bf 14 71 62 be
       -0.6852364 0.5780286 -0.5346775 -0.22113448
000070 63 22 0e bf f2 d1 ef be 64 a5 8b be 96 a4 0a bf
       -0.5552122 -0.46839863 -0.2727462 -0.5415739
000080 5e 29 06 bf 0d 77 9f be b4 53 d1 3e f0 6c a5 3e
       -0.5240687 -0.31145516 0.40884173 0.32309675
000090 78 3a 98 3d 10 16 af be f5 a7 fa 3b ef 3c c7 bd
       0.07433027 -0.3419652 0.0076494166 -0.09728419
0000a0 e1 7a 86 3e e4 fe f8 bd 17 75 e8 be f6 83 c5 3e
       0.26265624 -0.121579915 -0.45401832 0.3857724
0000b0 2c 55 21 be 35 9c 23 3f 1b 97 1c 3f ca 73 e3 3e
       -0.15755147 0.6391023 0.6116807 0.44424278
0000c0 46 7f 02 3e 0b 41 c4 3e 25 f4 b8 be 64 1a 00 be
       0.12743863 0.38330874 -0.36123767 -0.12510067
0000d0 fe 83 de 3e 8c 5f 09 bf d3 25 2a 3f 2b 99 36 3f
       0.43460077 -0.5366142 0.66463965 0.71327466
0000e0 00 70 68 3e f2 23 84 3e 63 e3 d4 bd 20 7a ea be
       0.22698975 0.25808674 -0.10394933 -0.457963
0000f0 04 45 5b 3e 43 b3 9c be ab ab de 3d a1 d2 ff 3d
       0.21413046 -0.30605516 0.10872587 0.12491346

fc1.bias f4 [32]
000000 cf 7d ef 3d 6e 52 55 bd c0 f0 a7 3d 33 d6 25 3f
       0.11693918 -0.052080564 0.08200216 0.6477997
000010 75 78 a1 be a0 04 a7 bc e9 00 24 3f b5 af d0 be
       -0.31537214 -0.020387948 0.6406389 -0.40759054
000020 a9 fa ce be 07 7a 16 bf b4 2e be 3e 5d e1 1b 3f
       -0.40425614 -0.5877995 0.37145007 0.6089075
000030 37 42 43 be 72 e1 1c bf e0 20 7c bd 09 f9 8e 3e
       -0.19068228 -0.612815 -0.06155479 0.27924374
000040 59 63 25 bf 14 3b c1 3e da 99 82 be d8 86 4b 3e
       -0.6460472 0.37740386 -0.25508004 0.19875658
000050 2c 98 ec 3e 73 41 0b bf 96 a5 00 bf 88 65 08 be
       0.46209848 -0.5439674 -0.50252664 -0.13319981
000060 1e aa 04 3f f0 1a e7 be 38 fe e8 3d 3c 91 05 3f
       0.5182208 -0.4513774 0.113766134 0.52174735
000070 20 89 83 3c 3f b9 1e 3f 08 73 1a be 21 62 9e 3d
       0.016056597 0.62001413 -0.15082943 0.0773356

fc2.weight f4 [3, 32]
000000 11 f0 7c 3e c7 04 f9 3c 20 62 6c bc 9a a4 4c bc
       0.24700953 0.030397786 -0.014427692 -0.012490416
000010 27 ac 23 3e 4b 44 08 3e 6c 29 b1 bd e0 a4 9c 3b
       0.1598364 0.13307302 -0.08650479 0.004780397
000020 5c 6b 21 3d 67 cd 01 3e c3 15 03 be a0 02 88 3d
       0.039409027 0.12676011 -0.1280127 0.06641126
000030 3d ff 69 3e 33 85 c6 bd e4 0a b3 3d fc c9 08 3e
       0.22851272 -0.096933745 0.087423116 0.13358301
000040 1f 47 fa bd 99 46 61 be 54 8e 5a bd 60 43 58 b9
       -0.122205965 -0.21999587 -0.05335839 -0.00020624464
000050 46 6c 34 3e 6e f0 9a 3d fb 39 07 3e d0 f0 47 3d
       0.17619428 0.075653896 0.13205712 0.04881364
000060 50 1e 65 bd f7 ef 1d 3e f9 ca 1a 3e 0b 71 9e bd
       -0.05593711 0.1542357 0.1511649 -0.07736405
000070 d3 9c 2d 3e e8 24 22 3e 0a a4 df 3d 9d 0f db bd
       0.16954355 0.15834391 0.1091996 -0.10696337
000080 72 4c 4f be 14 95 f7 bd c0 c6 0c bd ef ad fd bd
       -0.20244005 -0.12088981 -0.03436923 -0.12386691
000090 9c 01 06 be a4 49 3e 3d 37 3c 71 3d b9 5f b1 bd
       -0.13086551 0.046456948 0.058895316 -0.08660836
0000a0 d3 df 16 be 86 93 95 3d de 45 f3 bd 8c 35 87 3c
       -0.1473382 0.073035285 -0.118785605 0.016505025
0000b0 77 34 4b be 91 30 22 3e d9 90 87 be 7c 9d ae bd
       -0.19844232 0.15838839 -0.26477697 -0.085261315
0000c0 a8 7e 0e be c7 77 a6 3e 20 d4 b8 bc e6 51 68 bc
       -0.13915503 0.32513258 -0.022562087 -0.014179682
0000d0 a3 76 40 3e c0 e3 1a bc a8 11 bc 3c 9a d2 eb 3d
       0.18795256 -0.009453714 0.022957638 0.115147784
0000e0 b6 c0 c4 bc 70 e6 df bd 98 ae 88 3c 9d aa 86 3e
       -0.024017673 -0.10932624 0.016684815 0.26302043
0000f0 8f c2 2e be 3e 8d 04 3c 0c 8c 47 bd 2e ca 08 3e
       -0.17066406 0.008090315 -0.048717543 0.13358375
000100 35 9c 48 be de 2a 62 be e0 2e 5f 3c 20 2c 77 be
       -0.19590838 -0.22086665 0.013622016 -0.24137926
000110 a9 90 80 bd 40 e8 4e bb 6b ea 84 be 54 f1 8e 3d
       -0.06277592 -0.0031571537 -0.25960097 0.069796234
000120 23 7f 2b be 1e 92 d6 3d 27 6e 8d bd 92 62 8b be
       -0.16747718 0.104770884 -0.069057755 -0.2722364
000130 ac 3b c9 bd 5f 4a 30 3e 3b 2e 8f be 1a 2b 10 be
       -0.09825835 0.1721587 -0.2796496 -0.14078942
000140 04 33 de bd d6 b7 64 3e de de e0 bd 1c 6e ac bd
       -0.10849574 0.22335753 -0.109800085 -0.08419439
000150 d0 ec 68 3d 45 ff c7 bd ca a9 b0 3d a0 6b e3 3c
       0.056866467 -0.09765486 0.08626135 0.02776128
000160 7e 40 fc 3b 06 09 cf 3d 00 63 38 bc ce ff cc bc
       0.0076981178 0.10109143 -0.011254072 -0.02502432
000170 05 a8 0c 3e 0f cd 20 be e9 ee 2a 3e 97 2b 7f be
       0.1373597 -0.15703224 0.166927 -0.24918972

fc2.bias f4 [3]
000000 22 3c 15 3e 16 1e d6 3d 08 1f 8b be
       0.1457372 0.10454957 -0.27172112
