1.REINFORCE/models/model_0.52371.pth (torch, 2880 bytes, 4 tensors)

fc1.weight f4 [32, 2]
000000 24 53 4c be 34 65 69 3e a3 b4 cd 3d 1a 49 ee 3c
       -0.1995359 0.22792512 0.10044219 0.029087592
000010 5d 35 ce 3e 7d f4 c5 be be 3a cb 3e 30 62 04 3e
       0.40275088 -0.38663092 0.39693254 0.1292808
000020 2e e6 ad 3e ef 4f 04 3f 4a dc 63 3e 12 42 d6 3d
       0.33964676 0.5168447 0.22252002 0.10461821
000030 42 51 11 bf 29 b7 eb 3d b0 c4 0f 3e 40 be 77 3d
       -0.56764615 0.115095444 0.14039874 0.06048417
000040 09 65 a5 be c7 d1 96 bf 00 e5 93 be 8f 0b 67 bf
       -0.32303646 -1.1782769 -0.2888565 -0.9025201
000050 47 70 35 3f fb 1e b2 3c 66 78 c6 3e ec 8a 5f 3e
       0.70874447 0.021743288 0.38763732 0.21830338
000060 52 4c 1a bf db 40 3b bf 53 2e b0 3e af 40 ab bd
       -0.60272706 -0.73145837 0.34410343 -0.08361947
000070 e3 7f 2a 3f 24 a3 0e be 4d f9 45 bf db 7d 30 bf
       0.6660139 -0.1392942 -0.7733353 -0.6894204
000080 6e 18 2c bf 01 29 84 be e9 fa 10 bf 21 2d 5c bf
       -0.67224777 -0.25812533 -0.5663286 -0.8600636
000090 ea 5f ee 3e 94 38 76 be a4 6c 29 bf ff b9 52 3d
       0.46557552 -0.2404502 -0.661814 0.05144691
0000a0 56 bb 3b bf da 3c dd bd 5a 5b 1e bf 07 f3 02 be
       -0.73332727 -0.10802622 -0.6185814 -0.1278802
0000b0 60 5b 2f 3f ff 80 e1 bd e4 12 8f 3e 20 c9 ff be
       0.684988 -0.11010932 0.279441 -0.49958134
0000c0 46 f4 95 3e c1 e8 1b 3f 1a a7 f1 3d 01 64 8a 3e
       0.29287928 0.6090203 0.1179945 0.27029422
0000d0 8b c7 9c 3e a2 18 78 bf 48 fb 64 be 78 28 16 bf
       0.3062099 -0.96912587 -0.22361481 -0.586555
0000e0 05 2a 32 3f c0 64 31 3c 2b c3 25 be 70 9a 12 be
       0.69595367 0.010827243 -0.16187732 -0.14316726
0000f0 7f df 65 bf a5 59 12 bf 6e 34 c1 3e 38 57 88 3d
       -0.8979415 -0.57168037 0.37735313 0.06657261

fc1.bias f4 [32]
000000 2e db 85 be f7 9a 1a 3f 8c 75 2a 3f e4 67 84 be
       -0.26143783 0.6039271 0.6658561 -0.25860512
000010 96 b9 15 bf 4f 00 f2 3e 7c 75 1b bf 83 14 a3 be
       -0.58486307 0.4726586 -0.6072614 -0.31851587
000020 da 08 57 3d 5f f5 55 3f 7d 0a 8a 3e dc f3 36 be
       0.052498676 0.8357753 0.26961127 -0.17866462
000030 89 6f da 3e c8 cf 63 3e 95 bf a4 be a0 6d 25 3f
       0.4266322 0.22247231 -0.32177415 0.646204
000040 06 f0 13 be 8c 82 08 3f b0 6c d2 bd 4e 40 18 3f
       -0.1444703 0.533242 -0.10274637 0.5947312
000050 69 be d2 3e 82 82 cf 3e 40 9a 8d 3e 49 37 31 bf
       0.41160896 0.40529257 0.27656746 -0.69224983
000060 9e 22 d2 be dd f7 1f 3d d3 cd 4c 3f ad c9 00 bf
       -0.41042036 0.03905474 0.8000156 -0.5030773
000070 8a d4 c8 be d7 3d f3 3e f9 e0 f8 3e 44 aa 0d be
       -0.39224654 0.47508118 0.4860914 -0.13834482

fc2.weight f4 [3, 32]
000000 3c 9a 24 be 36 c7 15 3e 9a af 31 3e 7a d9 c5 3d
       -0.1607446 0.14626774 0.17352143 0.09660621
000010 44 a6 96 bd 48 f7 3c 3e 99 22 de 3b 1c 8a 5d 3d
       -0.073559314 0.18453705 0.0067790267 0.05408679
000020 d4 cf 2e 3e ad 02 b9 3e 8a 21 ca 3d fa f4 bb 3d
       0.17071468 0.36134854 0.09869678 0.09177585
000030 07 d4 24 3e bd 7c 1e bd d5 e1 25 be e6 d8 ba 3e
       0.16096507 -0.03869318 -0.1619943 0.36493605
000040 68 53 ae 3e 8a c8 ab 3e 68 bd 1f bd 48 b3 a8 3e
       0.3404801 0.33551437 -0.03899899 0.3294928
000050 cb 3b 77 3e 96 29 76 3e a5 c1 c7 3b 96 d5 e0 3d
       0.24143903 0.24039301 0.0060960823 0.10978238
000060 00 b7 c1 3b 8d d2 aa 3d 08 13 11 3e 4e a8 ed 3d
       0.005911708 0.083409406 0.14167416 0.11604367
000070 50 81 93 3c d3 0b 1d 3e 0d 79 a7 3e 82 3b 6c bd
       0.018005997 0.15336542 0.32709542 -0.05767394
000080 ac f7 7a 3d 77 d4 32 be 2e 75 d9 bd 8a c5 eb 3d
       0.061271355 -0.17463861 -0.106180534 0.11512287
000090 b6 c9 a1 3d e6 59 9a be 11 3b 2f bd 54 ca 12 bd
       0.078998014 -0.30146712 -0.04278094 -0.035837486
0000a0 f1 4e 7c be a1 8e 28 be 8a 44 b4 3d 3a c7 ec bd
       -0.24639489 -0.16460659 0.08802135 -0.11561437
0000b0 55 66 06 be 70 bb eb b7 49 d2 2e 3e 47 f5 b8 be
       -0.13124974 -2.8101465e-05 0.17072405 -0.36124632
0000c0 38 60 bc be 20 a5 94 be 25 37 b9 bd 47 b5 9d be
       -0.3679216 -0.2903223 -0.09043721 -0.30802366
0000d0 e8 86 40 be 71 2b 83 be 1c 5d f8 bc 81 7d 0d 3e
       -0.18801463 -0.2561908 -0.030317836 0.13817407
0000e0 88 21 11 be ee ed 1e be 8c 4d 99 be f8 7a 06 3d
       -0.14172947 -0.1552045 -0.29941976 0.032832116
0000f0 c4 d0 15 be 69 cd 2c be 89 73 90 be 3c b2 8b bd
       -0.14630419 -0.16875233 -0.28213146 -0.06821105
000100 0e 46 ea 3d 6f e3 9f bd b9 29 d6 bd 15 4f 2f 3e
       0.11439143 -0.078070514 -0.10457177 0.17120011
000110 3c 0f 1a bd 55 dd a5 3d 30 57 76 3c ae 95 d9 3d
       -0.037612185 0.08098856 0.015035436 0.10624252
000120 89 07 20 be 35 50 44 be c9 10 be 3d 50 e5 15 be
       -0.15627874 -0.19171222 0.09280545 -0.14638257
000130 be 0a ba 3b a2 ce ac bd 0b 5c 85 bd 54 0e 15 be
       0.00567755 -0.084378496 -0.065116964 -0.14556247
000140 fb d8 0c be a0 dc e1 bd 28 f1 4c 3d dc 08 c7 bb
       -0.13754646 -0.11028409 0.050034672 -0.006074054
000150 3c 55 c2 3d 9b 88 7d 3d 4d d9 00 be 87 27 d5 bd
       0.094889134 0.061897855 -0.12582894 -0.1040793
000160 a8 1b de 3c c7 6a a5 3c 02 58 14 be bd ef b8 bd
       0.027112797 0.020192517 -0.14486697 -0.090301014
000170 37 43 29 3e dd 96 87 bd 79 fb cc 3d e0 4a ec 3c
       0.16529547 -0.06620572 0.10008902 0.028844297

fc2.bias f4 [3]
000000 c8 4f ae 3e 7f b8 94 be 93 a7 96 bd
       0.34045243 -0.2904701 -0.07356181
