1.REINFORCE/models/model_31.75583.pth (torch, 2888 bytes, 4 tensors)

fc1.weight f4 [32, 2]
00000000: c80f 0bbf 3d40 293f 3f45 91bd 0848 82be
00000010: e684 a73e 986e 2e3e b46a 08bf 4d07 d2bd
00000020: 9e54 06be 3e33 aabe b8f1 14be 5ff3 0d3f
00000030: 372b c23d fc0d 36be dafa 8fbd eb56 15bf
00000040: 7b83 21bf 4648 ba3e cf52 203f c96e 043d
00000050: 01f8 21bf 756c c8be a2ff 3bbf b45d 70be
00000060: 10e6 26bd ee52 a73e 2687 cf3e 20fb 053d
00000070: 840e 50be 36c8 fcbe 4e6f ebbe fc70 21bd
00000080: 7eee 10bf 4db5 aa3e f7a9 cabe 61f5 15be
00000090: 6615 d23e d54d 8c3e 5a05 85bd b074 133f
000000a0: 49ad 77be 94dd 8fbe 3a0c e8be aabc d33e
000000b0: 45cd 103f c01f 40bc 954a 213f f24b 8bbe
000000c0: b4c6 f63e df42 3cbf 9001 b4be 9673 06bf
000000d0: b929 2abf 2b02 243f 8225 9d3e d814 543e
000000e0: 2062 143f fe73 0bbf 816c ac3e 9a29 8dbe
000000f0: 0fe3 30bf f464 0cbe 90fb b33d 3783 133f
-0.54320955 0.66113645 -0.07093286 -0.2544558 0.3271858 0.17034376 -0.53287816 -0.10255299
-0.13118216 -0.3324222 -0.14545333 0.5544948 0.09480899 -0.17778772 -0.07030268 -0.5833575
-0.6309125 0.36383265 0.62626356 0.032332215 -0.6326905 -0.39145246 -0.7343694 -0.23473245
-0.04074675 0.32680458 0.40532798 0.032710195 -0.20318037 -0.493715 -0.45983356 -0.03941439
-0.5661391 0.33341447 -0.39582798 -0.14644386 0.4103195 0.2740313 -0.06495161 0.57599926
-0.24187197 -0.28098738 -0.45321828 0.41354877 0.56563216 -0.01172632 0.6300443 -0.2720638
0.48198473 -0.7353954 -0.35157442 -0.5252012 -0.66469914 0.6406581 0.3069268 0.20711076
0.57962227 -0.54473865 0.33676532 -0.27570802 -0.69096464 -0.13710386 0.08788216 0.5762209

fc1.bias f4 [32]
00000000: b131 9bbe 20c4 083f 2020 c2bd 4ef0 bebd
00000010: fb2f 403e b2f4 28bf a15a c43e 9ba0 1c3f
00000020: 3772 99be 3d55 233f 4736 a8bc 5de5 c73e
00000030: 4e56 dabe 5e39 efbe dfa0 edbe f92e 2f3e
00000040: 0dad 833e 80d9 63b8 a1f5 c03e 093f b23e
00000050: fe3f 203f db68 dcbe 00ea 39bc 4d1e cdbe
00000060: d645 8a3e 2e3c 603e 6cda 21bf 39c6 25bf
00000070: 2845 a23e 5187 a23e 772d 0ebf 31ad 8abe
-0.3031135 0.53424263 -0.094787836 -0.09323178 0.18768303 -0.65998375 0.38350394 0.61182564
-0.29969952 0.6380194 -0.020533694 0.39042178 -0.4264397 -0.46723455 -0.46411797 0.17107762
0.25717965 -5.432358e-05 0.376874 0.34813717 0.62597644 -0.43048748 -0.011347294 -0.4006218
0.27006406 0.21897957 -0.6322391 -0.6475559 0.31693387 0.31743863 -0.55538124 -0.2708526

fc2.weight f4 [3, 32]
00000000: 7038 87bb 54b0 38be f0ce c03c e920 d3bd
00000010: d131 aa3d 3bf4 1dbe 06aa 8cbd 3dd9 b1bc
00000020: 2228 71bd 374f 203e fa82 c83d f283 c2bc
00000030: 567e b03d 0042 8e3c 450f 313e 7a1b bf3c
00000040: ecca 1fbe c48a c73d 195d acbd 8b65 cbbd
00000050: 1348 cd3c 855e 073e d08d 84bd 8a31 9a3d
00000060: f398 143e 0193 14bd a1fb e8bd 2824 48bd
00000070: 1693 033e 1ca4 083e ab62 0f3e 781c 51bd
00000080: 17c8 383e b7c3 70be e886 ae3c c4e4 163c
00000090: 5f81 b93d 6a67 c13d c9a9 4cbe f1cd b2bc
000000a0: 3200 363e 0cb9 783c 26d8 c8bd 4d98 1dbe
000000b0: e65b e13d d843 12be b17c 153e c452 85bd
000000c0: 5e25 18bc 4742 693d 6a46 8bbe 1964 abbd
000000d0: 3898 5ebe a05e 84bb b7f4 033e a6ad ef3d
000000e0: 03cd 8abe 1823 36be 403a f73c 551f 2dbe
000000f0: fdc8 9fbd f92a 90bd 2be4 babd 8228 f8bd
00000100: 1cfd 1cbe 5b29 ef3d fc7f d7bd d0a7 523e
00000110: 4bbc 333b 6227 dd3d e02c 3fbd 5920 3a3e
00000120: 8034 cebd 92cd 8c3e db08 083d c8a9 253d
00000130: 5021 98bc 30ae c53c d646 ab3d c06d 663e
00000140: 2fe9 453e 10fb e53d f53b b93c 5bad 013e
00000150: debf 4d3e 5a2a 11be 0bc3 0b3e 17a1 aabd
00000160: fca9 0b3e 3849 203e 1e8e e83d 08cd 1cbd
00000170: 2ac1 a53d 18e0 0a3e 986e ee3c 20dd 073d
-0.004126601 -0.18036014 0.023536175 -0.103090115 0.08310283 -0.15425198 -0.06868367 -0.021710033
-0.058876164 0.15655218 0.09790607 -0.023744557 0.08617847 0.017365456 0.17290981 0.023328532
-0.15604752 0.09743264 -0.084161945 -0.09931477 0.025058782 0.1321965 -0.06472361 0.0752898
0.1451147 -0.036273006 -0.113761194 -0.048862606 0.12849078 0.13343853 0.14002483 -0.05105254
0.18045078 -0.2351216 0.021304563 0.009209815 0.09057879 0.09443553 -0.19986643 -0.021826716
0.17773512 0.015180837 -0.09806852 -0.1539013 0.11003856 -0.14283693 0.14598347 -0.06509927
-0.009286253 0.056947973 -0.2720216 -0.083687015 -0.21737754 -0.0040396005 0.1288632 0.11703043
-0.27109537 -0.17786825 0.030179143 -0.16906483 -0.07802007 -0.070394464 -0.09125551 -0.12117101
-0.15330929 0.1167781 -0.10522458 0.20571828 0.0027425464 0.10798527 -0.046673656 0.18176402
-0.10068607 0.27500588 0.03321157 0.04044512 -0.018570572 0.02413091 0.0836312 0.22502804
0.19327234 0.11229527 0.022611598 0.12663786 0.20092723 -0.14176312 0.13648622 -0.08331507
0.13639063 0.1565293 0.11355232 -0.03828147 0.08093484 0.13562047 0.02910547 0.033169866

fc2.bias f4 [3]
00000000: afe6 30be 0a05 80be fd45 d23d
-0.17275499 -0.25003844 0.102672555
