1.REINFORCE/models/model_0.30204.pth (torch, 2880 bytes, 4 tensors)

fc1.weight f4 [32, 2]
00000000: ec4b 26bf b99b f63e 0b0f 89be 1b3e 873e
00000010: 9d0a 213f ba93 d9be 8b76 633e ba1a 03be
00000020: b09e 00bd 4e51 f8be 4e12 893e 8e9c a43e
00000030: 564a 6bbd 5a0f debc 41c1 233f 6748 313f
00000040: 30b7 4d3d b7f8 03bf 8c5b 103e 2413 0e3e
00000050: 89e4 c73d 6b63 55bd 3764 0ebf 307d 91be
00000060: 93bf 05bf f72c 3c3f a0e0 08bf 1471 62be
00000070: ca86 cfbe 1087 a1be dec6 0dbe d63d d3be
00000080: 5e29 06bf 0d77 9fbe 3b9b e33e 6c49 643e
00000090: 783a 983d 1016 afbe 7f0b 1dbc 3005 5cbd
000000a0: 49e4 9f3e cbe4 a7bc 1775 e8be f683 c53e
000000b0: 2c55 21be 359c 233f 1b97 1c3f ca73 e33e
000000c0: 141c 963c c7e9 9b3e 25f4 b8be 641a 00be
000000d0: fe83 de3e 8c5f 09bf 7c39 1a3f 87fc 2a3f
000000e0: 0070 683e f223 843e 5360 143c 138a a4be
000000f0: 0445 5b3e 43b3 9cbe 1bbb 573d fa6f da3d
-0.649596 0.48165682 -0.2676929 0.2641457 0.6290682 -0.4249552 0.2221319 -0.12803164
-0.031401336 -0.4849953 0.26771778 0.32150692 -0.05744394 -0.02710693 0.6396676 0.692511
0.05022353 -0.51551384 0.14097422 0.13874489 0.097603865 -0.052096765 -0.55621666 -0.28415823
-0.52245444 0.7350611 -0.5346775 -0.22113448 -0.40532523 -0.31548357 -0.13845393 -0.41258115
-0.5240687 -0.31145516 0.4445437 0.22293633 0.07433027 -0.3419652 -0.00958526 -0.053715885
0.31228855 -0.02049484 -0.45401832 0.3857724 -0.15755147 0.6391023 0.6116807 0.44424278
0.018323936 0.30451795 -0.36123767 -0.12510067 0.43460077 -0.5366142 0.60243964 0.66791576
0.22698975 0.25808674 0.009056169 -0.32136592 0.21413046 -0.30605516 0.052668672 0.10665889

fc1.bias f4 [32]
00000000: 1f74 6e3d 9401 4dbd c0f0 a73d 15c4 173f
00000010: 7578 a1be a004 a7bc d2ee 273f b5af d0be
00000020: a9fa cebe 077a 16bf 9a3a eb3e cea5 163f
00000030: f934 94be 72e1 1cbf d903 0dbe 374c 603e
00000040: 5963 25bf fe26 953e da99 82be 135a 7c3e
00000050: 8cb1 e73e 7341 0bbf 96a5 00bf 8865 08be
00000060: 2ad8 1c3f f01a e7be 38fe e83d 13b6 073f
00000070: 2089 833c 0a2f 103f 0873 1abe 11d3 c23d
0.05821621 -0.050050333 0.08200216 0.5928357 -0.31537214 -0.020387948 0.65598786 -0.40759054
-0.40425614 -0.5877995 0.45943147 0.5884675 -0.28946665 -0.612815 -0.13770999 0.21904074
-0.6460472 0.2913131 -0.25508004 0.24643736 0.45252645 -0.5439674 -0.50252664 -0.13319981
0.6126734 -0.4513774 0.113766134 0.530122 0.016056597 0.56321776 -0.15082943 0.09512914

fc2.weight f4 [3, 32]
00000000: 9a12 023e c715 d5bd 2062 6cbc 2abb 81bd
00000010: 27ac 233e 4b44 083e 0208 1dbe e0a4 9c3b
00000020: 5c6b 213d 67cd 013e 3be5 27be b487 bebc
00000030: b0e0 033d 3385 c6bd 7a1e 98bd 8028 3a3d
00000040: 1f47 fabd e817 36bd 548e 5abd dc5c 5bbd
00000050: 3710 1d3e 6ef0 9a3d fb39 073e d0f0 473d
00000060: 3dc0 dabd f7ef 1d3e f9ca 1a3e de6e 3abb
00000070: d39c 2d3e 2402 b83d 0aa4 df3d b9b9 1abe
00000080: 8aa9 0fbe d031 f6bc c0c6 0cbd dc57 ebbd
00000090: 9c01 06be a449 3e3d c1ec 9d3d b95f b1bd
000000a0: d3df 16be 8693 953d 3438 fdbd 335e 563d
000000b0: 6270 f2bc 9130 223e f524 15be 6552 43bd
000000c0: a87e 0ebe 2898 343e 20d4 b8bc 94c6 1a3a
000000d0: eb67 393e c0e3 1abc a811 bc3c 9ad2 eb3d
000000e0: 89eb 99bc 70e6 dfbd 98ae 883c cefa 433e
000000f0: 8fc2 2ebe 1810 ed3c 0c8c 47bd 8cca 133e
00000100: e4be 05be a91c 27be e02e 5f3c ffae 4abe
00000110: a990 80bd 40e8 4ebb 6cc3 55be 54f1 8e3d
00000120: 237f 2bbe 1e92 d63d 25b0 d5bc b358 5cbe
00000130: 08bc 33bc 5f4a 303e 6d76 51be 3bf9 b0bd
00000140: 0433 debd 6398 4b3e dede e0bd 9682 3abd
00000150: 8d8d b33d 45ff c7bd caa9 b03d a06b e33c
00000160: c2e7 613d 0609 cf3d 0063 38bc 5684 9cbc
00000170: 05a8 0c3e cdce dbbd e9ee 2a3e b494 57be
0.12702408 -0.10404544 -0.014427692 -0.06334527 0.1598364 0.13307302 -0.15335086 0.004780397
0.039409027 0.12676011 -0.16396038 -0.023258068 0.0321967 -0.096933745 -0.07427688 0.04544878
-0.122205965 -0.044456393 -0.05335839 -0.053555354 0.15338217 0.075653896 0.13205712 0.04881364
-0.10681198 0.1542357 0.1511649 -0.002844743 0.16954355 0.08984783 0.1091996 -0.1510991
-0.14029518 -0.03005305 -0.03436923 -0.11491367 -0.13086551 0.046456948 0.07711173 -0.08660836
-0.1473382 0.073035285 -0.123642355 0.05233593 -0.029594604 0.15838839 -0.14564879 -0.047686
-0.13915503 0.17636168 -0.022562087 0.0005904224 0.18106048 -0.009453714 0.022957638 0.115147784
-0.01878907 -0.10932624 0.016684815 0.19138643 -0.17066406 0.028938338 -0.048717543 0.14432734
-0.130611 -0.16319527 0.013622016 -0.19793318 -0.06277592 -0.0031571537 -0.20875329 0.069796234
-0.16747718 0.104770884 -0.026084969 -0.21518211 -0.010970123 0.1721587 -0.20455332 -0.08641287
-0.10849574 0.1988235 -0.109800085 -0.045534693 0.08767233 -0.09765486 0.08626135 0.02776128
0.055152662 0.10109143 -0.011254072 -0.019106071 0.1373597 -0.107328035 0.166927 -0.2105282

fc2.bias f4 [3]
00000000: f7b0 aa3d 2ad0 f13d 3d5a 62be
0.083345346 0.11807282 -0.22104736
