1.REINFORCE/models/model_best_0.pth (torch, 2880 bytes, 4 tensors)

fc1.weight f4 [32, 2]
000000 42 9e c7 bc 08 a7 19 c2 3a 44 c2 bd 6f 64 0e 42
       -0.024367455 -38.413116 -0.094856694 35.59808
000010 ac 8a 24 3d db 8f 17 42 56 0a 2f be d8 9f 0a 42
       0.04017131 37.890484 -0.17093787 34.656097
000020 fc 07 fb bd eb f9 13 42 4d bb 1d 3e a6 c8 0b c2
       -0.12257382 36.99406 0.15403481 -34.945946
000030 3d b6 ca 3e ce 41 f5 c1 a9 6c 0f 3f 92 bd 0a c2
       0.39592162 -30.657131 0.5602518 -34.685127
000040 e2 c0 21 be b6 ac d9 be 5f 0d c9 3e 58 0e 0c c2
       -0.15796235 -0.4251458 0.39268014 -35.014008
000050 67 e1 72 3b 3c 4f 6b 3e a8 43 4d 3e 48 78 07 42
       0.003706062 0.22979444 0.2004534 33.867462
000060 c3 5f b6 3e 42 e1 cb 41 91 99 21 bf af 1c f9 c1
       0.35619935 25.48499 -0.6312495 -31.139006
000070 c6 44 13 3d 1d 35 0a 42 e5 34 8e 3e 29 6a 0d c2
       0.03595426 34.55187 0.2777473 -35.353672
000080 8d 47 e6 be 0b 88 0e c2 e9 49 cd 3e 6c 9c 0a c2
       -0.44976464 -35.632854 0.4009545 -34.652756
000090 b8 0b 92 bd 40 d7 14 42 f5 4d bc bd 90 39 12 42
       -0.071311414 37.210205 -0.091945566 36.556213
0000a0 e5 d1 92 3e 16 b1 11 c2 fb c1 96 bd c1 56 07 c2
       0.28675762 -36.422935 -0.073612176 -33.83472
0000b0 03 c5 91 3d 35 31 15 42 86 68 a2 3d 1a e8 1c 42
       0.07117655 37.298054 0.079300925 39.22666
0000c0 77 c1 0c be ad fb 07 42 da b2 b8 3e d1 e3 db 41
       -0.13745676 33.995777 0.36073953 27.486238
0000d0 3b 72 5a be 9b 99 17 42 f6 35 83 3f 73 60 fd 41
       -0.21332638 37.900005 1.0250843 31.672094
0000e0 a7 bb b1 3e f7 6d 03 c2 1d af 87 3e c8 a7 0c c2
       0.3471348 -32.857388 0.26500788 -35.16385
0000f0 e9 a9 85 bf f9 d5 f4 c1 19 d3 72 3e a3 46 0b c2
       -1.0442477 -30.604479 0.2371334 -34.81898

fc1.bias f4 [32]
000000 a8 c6 0a 3f 6a c5 ae 3e d9 09 a2 3e b0 60 c5 3e
       0.54209375 0.3413499 0.31648138 0.3855033
000010 37 ed 8a 3e 6a e9 f0 3e 7f 10 78 3f 53 90 72 3f
       0.27134106 0.4705308 0.9690017 0.9475147
000020 4d 43 10 bf 58 4d 6c 3f ff 1c 33 bf 22 88 18 3f
       -0.5635269 0.9230552 -0.6996612 0.5958272
000030 91 a1 b3 3e 5a 8d 0c 3f 62 c8 c2 3e 85 74 f7 3e
       0.35084203 0.54903185 0.38043505 0.48331085
000040 6b c2 c7 3e 7d ce 2e 3f cc ad 9a 3e c2 a4 74 3e
       0.39015517 0.68283826 0.30210721 0.23890975
000050 3f eb 24 3f 8f 45 49 3f 21 c4 c0 3e 48 6f e2 3e
       0.6442146 0.78621763 0.37649634 0.44225526
000060 58 ba 95 3e db 7d ba 3e dc f6 d8 3e 7f 57 78 3f
       0.29243731 0.36424145 0.4237584 0.9700851
000070 f2 3d 72 3f 8a 74 55 3f 2b 55 96 3e 5a 78 08 3f
       0.9462577 0.8338095 0.29361853 0.5330864

fc2.weight f4 [3, 32]
000000 10 1c db 3f b8 c5 f5 bf 4b 9f 34 c0 c3 01 bf bf
       1.7117939 -1.9200964 -2.8222225 -1.4922413
000010 bd c1 3f c0 29 3d ce 3f b1 06 e1 3e 71 db 72 3f
       -2.9961998 1.6112415 0.43950418 0.9486609
000020 83 af 31 bc 69 09 6b 3f c4 02 23 bd 95 db 8b bf
       -0.010845068 0.91811234 -0.03979756 -1.0926386
000030 11 c7 6e be 4e 69 57 3f 76 9a dd bf 24 b4 0c 40
       -0.23318125 0.8414506 -1.7312763 2.198495
000040 c6 5f e7 3f 2d d8 97 3f 38 55 22 c0 fe e4 2e c0
       1.8076103 1.1862847 -2.5364513 -2.7327266
000050 30 c5 ca 3f ab ce 74 3f 5c a8 0e c0 12 a0 4e c0
       1.5841427 0.9562785 -2.2290258 -3.22852
000060 ef 82 c2 bf 61 6a d4 bf 2b 81 1f c0 3b 55 08 c0
       -1.5196208 -1.6594964 -2.4922588 -2.130202
000070 4d fb 41 3f 52 ae 8d 3f 27 94 85 3f 49 40 c2 3f
       0.7577408 1.1068823 1.0435838 1.5175868
000080 5b 1d de bf 70 68 19 bf 48 b5 31 bf 34 7e 09 bf
       -1.7352709 -0.59924984 -0.6941724 -0.53708196
000090 e2 5f b6 bf 0d 4d 4f bf b4 1e 5e bf b4 c8 4b bf
       -1.4248011 -0.80976945 -0.867656 -0.79603124
0000a0 11 ff 41 bd 20 ab 7c bf b9 c1 a1 bd 0b aa 0d bf
       -0.04736239 -0.98698616 -0.07898278 -0.5533759
0000b0 27 47 55 bf 98 15 6e bf 4f 7b af be 9d 6c c1 bf
       -0.83311695 -0.930017 -0.34273764 -1.5111271
0000c0 0f e0 01 c0 c9 17 4d bf 9c 9d 10 bf 23 2f df be
       -2.0293005 -0.8011442 -0.5649049 -0.4359065
0000d0 af d1 1a bf ea 07 59 bf b5 6e 56 bf ca 80 b9 c0
       -0.604762 -0.847777 -0.83762676 -5.7969713
0000e0 54 5a 94 bf f3 3c 3f be f5 56 93 bf c5 6a 76 bf
       -1.1590066 -0.18675594 -1.1510912 -0.9625667
0000f0 57 29 6a bf 6c a8 54 bf 18 50 96 bf 6b 13 3a bf
       -0.9146933 -0.8306949 -1.1743193 -0.7268588
000100 42 21 f7 bf eb 20 d8 3f 32 bd 1f 40 b6 f7 ad 3f
       -1.9307024 1.6885046 2.4959226 1.359122
000110 ec 6d 2f 40 b5 36 de bf 81 d3 82 be 1e 7d 58 bf
       2.741084 -1.7360445 -0.2555199 -0.84565914
000120 79 aa a7 3b d0 64 9e bf d4 bf 15 be 2b 85 8b 3f
       0.0051167575 -1.2374516 -0.14623958 1.0900015
000130 7c e0 e7 3e 84 02 03 bf 6b 1f b5 3f d7 3b 00 c0
       0.45288455 -0.51175714 1.4150213 -2.0036523
000140 5f b0 c0 bf 7b 34 6c bf 3a 0e 0f 40 ea 22 1a 40
       -1.5053824 -0.9226758 2.2352433 2.408381
000150 31 02 d0 bf 66 8f 8a bf d9 43 21 40 84 f0 45 40
       -1.6250669 -1.0825012 2.519766 3.092805
000160 bb 4f ba 3f 66 cd cf 3f 54 e1 08 40 d3 3b 14 40
       1.4555582 1.6234558 2.138753 2.3161514
000170 c4 4b 42 bf 1b 5d 95 bf 7b e4 4d bf 06 80 c8 bf
       -0.7589686 -1.1669039 -0.8042676 -1.566407

fc2.bias f4 [3]
000000 28 04 56 3e 3f 92 3d bf 3f 15 52 3e
       0.20900023 -0.7405128 0.20515917
