1.REINFORCE/models/model_0.38299.pth (torch, 2880 bytes, 4 tensors)

fc1.weight f4 [32, 2]
-0.7822648 0.294372 -0.31886697 0.09934878 0.6290682 -0.4249552 0.09603484 -0.33955607
-0.031401336 -0.4849953 0.26771778 0.32150692 -0.04638422 -0.012168817 0.6396676 0.692511
0.05022353 -0.51551384 0.14097422 0.13874489 0.21283229 0.05879613 -0.6315816 -0.4500586
-0.6799669 0.5020968 -0.5346775 -0.22113448 -0.5540916 -0.5471385 -0.2743302 -0.61898077
-0.5240687 -0.31145516 0.4005654 0.40536252 0.07433027 -0.3419652 -0.0016046504 -0.15598893
0.24469976 -0.16387914 -0.45401832 0.3857724 -0.15755147 0.6391023 0.6116807 0.44424278
0.15307656 0.4390142 -0.36123767 -0.12510067 0.48999423 -0.49866182 0.65707934 0.77649087
0.22698975 0.25808674 -0.116518915 -0.53540146 0.21413046 -0.30605516 0.12033725 0.16042776
00000000: 8242 48bf edb7 963e 8842 a3be 6077 cb3d
00000010: 9d0a 213f ba93 d9be eaad c43d 4bda adbe
00000020: b09e 00bd 4e51 f8be 4e12 893e 8e9c a43e
00000030: 61fd 3dbd b85f 47bc 41c1 233f 6748 313f
00000040: 30b7 4d3d b7f8 03bf 8c5b 103e 2413 0e3e
00000050: b5f0 593e 36d4 703d 55af 21bf 156e e6be
00000060: 5012 2ebf 6a89 003f a0e0 08bf 1471 62be
00000070: f2d8 0dbf 4511 0cbf 0275 8cbe 8675 1ebf
00000080: 5e29 06bf 0d77 9fbe e816 cd3e ad8b cf3e
00000090: 783a 983d 1016 afbe 2253 d2ba 90bb 1fbe
000000a0: 9392 7a3e efcf 27be 1775 e8be f683 c53e
000000b0: 2c55 21be 359c 233f 1b97 1c3f ca73 e33e
000000c0: 1ac0 1c3e 78c6 e03e 25f4 b8be 641a 00be
000000d0: 86e0 fa3e 9a50 ffbe 5a36 283f 1bc8 463f
000000e0: 0070 683e f223 843e 78a1 eebd 1210 09bf
000000f0: 0445 5b3e 43b3 9cbe 6073 f63d 2d47 243e

fc1.bias f4 [32]
0.110144496 -0.054290302 0.08200216 0.64618844 -0.31537214 -0.020387948 0.6538667 -0.40759054
-0.40425614 -0.5877995 0.34494013 0.6184207 -0.19422023 -0.612815 -0.0685708 0.27336022
-0.6460472 0.38581562 -0.25508004 0.19452173 0.4650743 -0.5439674 -0.50252664 -0.13319981
0.49726003 -0.4513774 0.058314245 0.52449304 0.016056597 0.621067 -0.15082943 0.06347569
00000000: 7093 e13d 825f 5ebd c0f0 a73d 9b6c 253f
00000010: 7578 a1be a004 a7bc cf63 273f b5af d0be
00000020: a9fa cebe 077a 16bf fe9b b03e d250 1e3f
00000030: abe1 46be 72e1 1cbf d96e 8cbd dff5 8b3e
00000040: 5963 25bf a089 c53e da99 82be b430 473e
00000050: 381e ee3e 7341 0bbf 96a5 00bf 8865 08be
00000060: de98 fe3e f01a e7be ebda 6e3d 2d45 063f
00000070: 2089 833c 3ffe 1e3f 0873 1abe 8bff 813d

fc2.weight f4 [3, 32]
0.24484177 0.026918147 -0.014427692 -0.016786145 0.1598364 0.13307302 -0.088588946 0.004780397
0.039409027 0.12676011 -0.1341393 0.0652672 0.22498268 -0.096933745 0.08794642 0.13148198
-0.122205965 -0.2284011 -0.05335839 -0.00404978 0.17124295 0.075653896 0.13205712 0.04881364
-0.06099868 0.1542357 0.09637252 -0.08855184 0.16954355 0.15548213 0.1091996 -0.11428637
-0.18103437 -0.09791765 -0.03436923 -0.10945651 -0.13086551 0.046456948 0.07214721 -0.08660836
-0.1473382 0.073035285 -0.10737733 0.032875575 -0.1694384 0.15838839 -0.24190815 -0.06754575
-0.13915503 0.32149324 -0.022562087 -0.0021001697 0.1978606 -0.009453714 0.022957638 0.115147784
-0.011090817 -0.10932624 0.07144995 0.25748712 -0.17066406 0.023446593 -0.048717543 0.12826991
-0.22466405 -0.2504521 0.013622016 -0.25647673 -0.06277592 -0.0031571537 -0.27547762 0.069796234
-0.16747718 0.104770884 -0.07677058 -0.29408565 -0.14055867 0.1721587 -0.3160552 -0.16404408
-0.10849574 0.24281651 -0.109800085 -0.09591811 0.04935553 -0.09765486 0.08626135 0.02776128
-0.003502049 0.10109143 0.03084237 -9.288092e-05 0.1373597 -0.17538905 0.166927 -0.23317747
00000000: cdb7 7a3e 7283 dc3c 2062 6cbc 1983 89bc
00000010: 27ac 233e 4b44 083e 1f6e b5bd e0a4 9c3b
00000020: 5c6b 213d 67cd 013e d05b 09be cfaa 853d
00000030: dc61 663e 3385 c6bd 411d b43d 36a3 063e
00000040: 1f47 fabd fae1 69be 548e 5abd 04b4 84bb
00000050: 505a 2f3e 6ef0 9a3d fb39 073e d0f0 473d
00000060: c0d9 79bd f7ef 1d3e f55e c53d ab5a b5bd
00000070: d39c 2d3e b536 1f3e 0aa4 df3d f90e eabd
00000080: 1361 39be 0d89 c8bd c0c6 0cbd bc2a e0bd
00000090: 9c01 06be a449 3e3d ebc1 933d b95f b1bd
000000a0: d3df 16be 8693 953d a5e8 dbbd 8aa8 063d
000000b0: 4381 2dbe 9130 223e c5b6 77be 6d55 8abd
000000c0: a87e 0ebe c39a a43e 20d4 b8bc 00a3 09bb
000000d0: f89b 4a3e c0e3 1abc a811 bc3c 9ad2 eb3d
000000e0: 42b6 35bc 70e6 dfbd 5a54 923d 5ad5 833e
000000f0: 8fc2 2ebe 1213 c03c 0c8c 47bd 3059 033e
00000100: 550e 66be 423b 80be e02e 5f3c eb50 83be
00000110: a990 80bd 40e8 4ebb 670b 8dbe 54f1 8e3d
00000120: 237f 2bbe 1e92 d63d e539 9dbd 6592 96be
00000130: 9dee 0fbe 5f4a 303e fdd1 a1be 2cfb 27be
00000140: 0433 debd e4a4 783e dede e0bd b770 c4bd
00000150: 0629 4a3d 45ff c7bd caa9 b03d a06b e33c
00000160: a282 65bb 0609 cf3d 23a9 fc3c 10c9 c2b8
00000170: 05a8 0c3e 3099 33be e9ee 2a3e 13c6 6ebe

fc2.bias f4 [3]
0.14243527 0.119132824 -0.2880178
00000000: 8dda 113e e9fb f33d 1277 93be
