1.REINFORCE/models/model_0.17903.pth (torch, 2880 bytes, 4 tensors)

fc1.weight f4 [32, 2]
0	0xbf1f5a94	-0.62247586
1	0x3ee9e7ab	0.4568456
2	0xbe8ea791	-0.27862218
3	0x3e94b357	0.29043075
4	0x3f210a9d	0.6290682
5	0xbed993ba	-0.4249552
6	0x3e80182e	0.25018448
7	0xbe08d9c8	-0.13364327
8	0xbd009eb0	-0.031401336
9	0xbef8514e	-0.4849953
10	0x3e89124e	0.26771778
11	0x3ea49c8e	0.32150692
12	0xbd7aeaf2	-0.061259218
13	0x3b29a9cb	0.0025888558
14	0x3f23c141	0.6396676
15	0x3f314867	0.692511
16	0x3d4db730	0.05022353
17	0xbf03f8b7	-0.51551384
18	0x3e105b8c	0.14097422
19	0x3e0e1324	0.13874489
20	0x3d3646f7	0.04450127
21	0xbd75d4d5	-0.060017426
22	0xbf09a9a0	-0.5377445
23	0xbe83b6ce	-0.25725406
24	0xbf0d953d	-0.55305845
25	0x3f383773	0.7195961
26	0xbf08e0a0	-0.5346775
27	0xbe627114	-0.22113448
28	0xbec45eec	-0.3835367
29	0xbea3b40d	-0.31973305
30	0xbdecc435	-0.11560861
31	0xbede4346	-0.434107
32	0xbf06295e	-0.5240687
33	0xbe9f770d	-0.31145516
34	0x3f077a65	0.52921134
35	0x3e825f31	0.2546325
36	0x3d983a78	0.07433027
37	0xbeaf1610	-0.3419652
38	0xbd54a16a	-0.05191175
39	0xbd044d4d	-0.032300282
40	0x3ea2afb9	0.3177469
41	0xba1e55e4	-0.00060400204
42	0xbee87517	-0.45401832
43	0x3ec583f6	0.3857724
44	0xbe21552c	-0.15755147
45	0x3f239c35	0.6391023
46	0x3f1c971b	0.6116807
47	0x3ee373ca	0.44424278
48	0xbd0e9e71	-0.03481907
49	0x3e9df904	0.30854046
50	0xbeb8f425	-0.36123767
51	0xbe001a64	-0.12510067
52	0x3ede83fe	0.43460077
53	0xbf095f8c	-0.5366142
54	0x3f192c00	0.59832764
55	0x3f328bb0	0.69744396
56	0x3e687000	0.22698975
57	0x3e8423f2	0.25808674
58	0x3d2d2215	0.04226883
59	0xbea4c66b	-0.3218263
60	0x3e5b4504	0.21413046
61	0xbe9cb343	-0.30605516
62	0x3d4eff5c	0.0505365
63	0x3e0b9db6	0.1363438

fc1.bias f4 [32]
0	0x3d49f8ec	0.049309656
1	0xbd2eb00d	-0.042648364
2	0x3da7f0c0	0.08200216
3	0x3f14fc9c	0.5819795
4	0xbea17875	-0.31537214
5	0xbca704a0	-0.020387948
6	0x3f284233	0.6572601
7	0xbed0afb5	-0.40759054
8	0xbecefaa9	-0.40425614
9	0xbf167a07	-0.5877995
10	0x3f0094ef	0.50227255
11	0x3f13c3a0	0.57720375
12	0xbe839d5b	-0.2570599
13	0xbf1ce172	-0.612815
14	0xbe123cc3	-0.14280991
15	0x3e5d8593	0.21632986
16	0xbf256359	-0.6460472
17	0x3e53494e	0.20633432
18	0xbe8299da	-0.25508004
19	0x3e8dab87	0.27669927
20	0x3ee9523a	0.45570546
21	0xbf0b4173	-0.5439674
22	0xbf00a596	-0.50252664
23	0xbe086588	-0.13319981
24	0x3f26ee40	0.6520729
25	0xbee71af0	-0.4513774
26	0x3de8fe38	0.113766134
27	0x3f0841f7	0.53225654
28	0x3c838920	0.016056597
29	0x3f0b8e5c	0.545141
30	0xbe1a7308	-0.15082943
31	0x3dc2aa7e	0.09505175

fc2.weight f4 [3, 32]
0	0x3dbee6fd	0.09321401
1	0xbe1c3f20	-0.15258455
2	0xbc6c6220	-0.014427692
3	0xbd9c06ba	-0.076184705
4	0x3e23ac27	0.1598364
5	0x3e08444b	0.13307302
6	0xbe316d44	-0.17326838
7	0x3b9ca4e0	0.004780397
8	0x3d216b5c	0.039409027
9	0x3e01cd67	0.12676011
10	0xbe3854c5	-0.18001087
11	0xbd45b351	-0.048266713
12	0xbd088fcf	-0.03334027
13	0xbdc68533	-0.096933745
14	0xbe0cb3da	-0.13740483
15	0x3cc76a4f	0.024342684
16	0xbdfa471f	-0.122205965
17	0x3d163fc3	0.0366819
18	0xbd5a8e54	-0.05335839
19	0xbd982f1a	-0.07430859
20	0x3e137ad1	0.1440232
21	0x3d9af06e	0.075653896
22	0x3e0739fb	0.13205712
23	0x3d47f0d0	0.04881364
24	0xbe00429b	-0.12525408
25	0x3e1deff7	0.1542357
26	0x3e1acaf9	0.1511649
27	0x3b106718	0.0022034105
28	0x3e2d9cd3	0.16954355
29	0x3d93fbb9	0.07225747
30	0x3ddfa40a	0.1091996
31	0xbe2f5d48	-0.17125428
32	0xbe0eb4c5	-0.13936146
33	0xbc7d1c8b	-0.0154487
34	0xbd0cc6c0	-0.03436923
35	0xbdf09075	-0.11746303
36	0xbe06019c	-0.13086551
37	0x3d3e49a4	0.046456948
38	0x3d9cfe30	0.0766567
39	0xbdb15fb9	-0.08660836
40	0xbe16dfd3	-0.1473382
41	0x3d959386	0.073035285
42	0xbe027d7c	-0.12743181
43	0x3d582e36	0.052778445
44	0xbcd29a17	-0.025708241
45	0x3e223091	0.15838839
46	0xbe0450f8	-0.12921512
47	0xbd4bece6	-0.04978647
48	0xbe0e7ea8	-0.13915503
49	0x3e0924f7	0.13393007
50	0xbcb8d420	-0.022562087
51	0x3aa2cad8	0.0012420071
52	0x3e38b623	0.1803823
53	0xbc1ae3c0	-0.009453714
54	0x3cbc11a8	0.022957638
55	0x3debd29a	0.115147784
56	0xbcaca7b1	-0.021076055
57	0xbddfe670	-0.10932624
58	0x3c88ae98	0.016684815
59	0x3e41516d	0.18878718
60	0xbe2ec28f	-0.17066406
61	0x3ce0bc97	0.027433677
62	0xbd478c0c	-0.048717543
63	0x3e1f7f5d	0.15575929
64	0xbdc018b0	-0.09379709
65	0xbe0358bb	-0.12826817
66	0x3c5f2ee0	0.013622016
67	0xbe338c0a	-0.1753389
68	0xbd8090a9	-0.06277592
69	0xbb4ee840	-0.0031571537
70	0xbe39cb70	-0.18144011
71	0x3d8ef154	0.069796234
72	0xbe2b7f23	-0.16747718
73	0x3dd6921e	0.104770884
74	0x3aba7118	0.0014224378
75	0xbe3cdaa9	-0.18442787
76	0x3d27a79f	0.04093134
77	0x3e304a5f	0.1721587
78	0xbe291db9	-0.16515245
79	0xbd675f83	-0.05648757
80	0xbdde3304	-0.10849574
81	0x3dfe8d0c	0.12429246
82	0xbde0dede	-0.109800085
83	0xbc9991e5	-0.018746326
84	0x3dd4c66c	0.103894085
85	0xbdc7ff45	-0.09765486
86	0x3db0a9ca	0.08626135
87	0x3ce36ba0	0.02776128
88	0x3daa6c95	0.08321492
89	0x3dcf0906	0.10109143
90	0xbc386300	-0.011254072
91	0xbca9ec32	-0.02074251
92	0x3e0ca805	0.1373597
93	0xbda6334a	-0.08115251
94	0x3e2aeee9	0.166927
95	0xbe496cf2	-0.19670466

fc2.bias f4 [3]
0	0x3d859414	0.06522384
1	0x3ded575e	0.115889296
2	0xbe461e7d	-0.19347568
