1.REINFORCE/models/model_0.12052.pth (torch, 2880 bytes, 4 tensors)

fc1.weight f4 [32, 2]
00000000: 577a e2be c860 233f 738c 8bbe 1039 c6bd
00000010: d078 2f3f 246c 90bc c866 28bf 4225 e5be
00000020: 7692 c23e fa5a 6fbe 0510 16bf 1caf 0ebf
00000030: e87c dfbe 0bf0 c7be 160e 0c3f ba6d 993e
00000040: bb56 2a3f 20b3 06be 9ef2 ae3e f214 b23e
00000050: 1ab0 f8be a167 813c 32d6 aa3e f4f6 1bbf
00000060: f249 cd3e b717 cdbb e6c7 0d3f c2c7 dbbe
00000070: 1924 3d3e f607 09bf 776e 02bf 8b0c d23d
00000080: de91 ff3e 53e7 c43e 1c11 2d3f 669d 8abe
00000090: 0d3d 11be 5644 1dbf 8953 e1be 59c6 e8bd
000000a0: f7c8 1ebf e696 29bf 2055 903d 2081 a43c
000000b0: a25d 2abf 5702 b03e bd92 49be 8cf7 ddbe
000000c0: 4004 10bf 9298 203f a7fc 8abe 502e 18bf
000000d0: f082 273e 3450 6c3e 27c5 f8be af57 913e
000000e0: c7a2 1e3f bd9d 9cbd ae9e 27be d834 943d
000000f0: 0e33 dc3e a053 c8bc 4113 c7be dd02 0bbf
-0.44233963 0.6381955 -0.27255592 -0.096788526 0.6854372 -0.01762969 -0.6578183 -0.44754988
0.38002366 -0.23374549 -0.58618194 -0.55735946 -0.43649983 -0.39050326 0.54708993 0.29966527
0.6653859 -0.13154268 0.34169477 0.34781605 -0.48571855 0.015796484 0.33366543 -0.60923696
0.40095478 -0.0062589305 0.55383146 -0.4292584 0.18470801 -0.5352777 -0.50949806 0.10256299
0.49915975 0.38457736 0.6760423 -0.2707321 -0.14183445 -0.614324 -0.44009045 -0.11365957
-0.620254 -0.6624588 0.07047486 0.020081103 -0.6654912 0.34376785 -0.19684882 -0.43352926
-0.56256485 0.62732804 -0.27145883 -0.5944567 0.16358542 0.2307747 -0.48587915 0.2838721
0.6196713 -0.07647274 -0.16369125 0.07236642 0.43007702 -0.024453938 -0.38881877 -0.54301244

fc1.bias f4 [32]
00000000: 8bde 1ebe 4602 34bf dfc6 283f 8243 16bf
00000010: c09a 0f3d eb33 f83e 1c25 343e 1743 4f3e
00000020: 99e1 2bbf 7e68 a3be fed3 f23e ae8a 1abf
00000030: d2c2 fc3e 7a8e c83e d64b b03e d727 a8bd
00000040: cc52 9b3e cd97 253f 65b8 983e ce22 c63e
00000050: 9b29 183f 8919 8fbe e8ea 0f3f 872c cf3e
00000060: 5828 d53e eed0 cebe 9e3e c3be 2ca7 213e
00000070: db6a e63e f4ff 203e 7d2d 2dbf 1dd1 2c3e
-0.15514581 -0.7031597 0.65928453 -0.5869676 0.03505969 0.4847711 0.17592281 0.20240436
-0.6714111 -0.3191566 0.47427362 -0.6036786 0.49367386 0.391712 0.34432858 -0.08210724
0.30336607 0.64684755 0.29828182 0.3869843 0.59438485 -0.2794917 0.56217813 0.4046366
0.41632342 -0.40393776 -0.3813371 0.15786427 0.450034 0.15722638 -0.67647535 0.16876645

fc2.weight f4 [3, 32]
00000000: 6dc7 42bd 20a4 1bbe b099 1abd c8e8 1d3d
00000010: e102 35be 2bc5 91bd f22f ce3d 75b4 893d
00000020: 9e27 b93d 8241 acbd 5bc8 3c3d 3b7b 0ebe
00000030: 7b5f 92bd 8a52 bcbd 64a9 cd3c c0f1 15be
00000040: 1490 81bd be11 ad3d 8114 1a3e ee3b ec3d
00000050: 8183 ed3d e3c2 013e 1b2b 15be 27fe 6f3d
00000060: 8e95 e43d 9218 c83d d47e 323d d37d 0dbe
00000070: 275d 0b3e 9af6 0ebc 42c5 d13d c80f ad3c
00000080: 5045 dcbd 20fd 2fbd f085 d63d e91e 1bbe
00000090: 10a1 58bc c2bd 1d3e 1ca8 343e 6df7 06bd
000000a0: 9288 1abe 1a00 b83d bb06 dfbd 4cc8 c4bd
000000b0: 9a49 06be e80a c73d f97d 523c faaa 82bd
000000c0: 640d 13bc 60d7 6bbd 3e86 343e 9dcb 093e
000000d0: 24e1 02bd c86f 713d d7d1 afbd 1a45 5b3d
000000e0: ea0d 09be b053 98bc d8d7 393d 544b e33d
000000f0: d451 03be ff0b 143d 3520 82bd b3bf fdbd
00000100: 7f14 9cbd 63b5 15be 997d 15be 7418 26be
00000110: ac34 0fbe 51c0 2b3e 14af 183e 2427 d0bd
00000120: 4673 0cbe d37b 083e 18e4 1ebe 8897 26bd
00000130: e776 993c 552a 573d c753 b53d a438 89bc
00000140: ea64 fcbd bb75 2a3e 46bd 8cbd f356 98bd
00000150: b314 04be 78eb 5ebd bb99 d23d 3052 16bd
00000160: 2212 093e 89f3 163e 7a2e fc3d 5aac 10bc
00000170: 1873 253e 789a e83c e448 18bd 31cf 17be
-0.04755347 -0.15199327 -0.037744224 0.038552076 -0.1767688 -0.07117685 0.100677386 0.067238726
0.090407595 -0.08410932 0.04608951 -0.13914196 -0.07147118 -0.091954306 0.025105186 -0.14643002
-0.06326309 0.0845065 0.15046884 0.11534868 0.11597348 0.12672 -0.14567225 0.058591988
0.11161338 0.097703114 0.043577984 -0.1381753 0.13609754 -0.008725787 0.10242702 0.02112569
-0.10755408 -0.04296601 0.10474765 -0.1514851 -0.013221994 0.15404418 0.17642254 -0.032950807
-0.1509116 0.08984394 -0.108899556 -0.09608516 -0.13114014 0.09718877 0.012847417 -0.063802674
-0.008975361 -0.057578444 0.17629334 0.13456579 -0.031952992 0.058944494 -0.08584946 0.053532697
-0.13384214 -0.018594593 0.04537186 0.11098352 -0.12824184 0.036144253 -0.06353799 -0.12390079
-0.07621097 -0.14619975 -0.14598693 -0.16220266 -0.13984936 0.16772582 0.14910537 -0.101637155
-0.13715848 0.13328485 -0.15516698 -0.040671855 0.018733455 0.052530605 0.0885387 -0.016750641
-0.12323935 0.16646473 -0.068720385 -0.07438459 -0.12898521 -0.05442378 0.10283228 -0.036699474
0.13385823 0.14741339 0.12313552 -0.008830154 0.16157186 0.028393969 -0.03717889 -0.14825131

fc2.bias f4 [3]
00000000: 0386 25bd 5dca d93d cad8 81bd
-0.040411007 0.10634301 -0.06340177
