1.REINFORCE/models/model_0.12789.pth (torch, 2880 bytes, 4 tensors)

fc1.weight f4 [32, 2]
-0.63039166 0.47447926 -0.27039224 0.2717415 0.6290682 -0.4249552 0.2444741 -0.11900297
-0.031401336 -0.4849953 0.26771778 0.32150692 -0.05196415 -0.015121302 0.6396676 0.692511
0.05022353 -0.51551384 0.14097422 0.13874489 0.025660722 -0.0746158 -0.5250757 -0.24938424
-0.57077837 0.70405316 -0.5346775 -0.22113448 -0.39411843 -0.31112796 -0.1241063 -0.4176017
-0.5240687 -0.31145516 0.5412141 0.2509255 0.07433027 -0.3419652 -0.04669877 -0.050046805
0.3284762 0.0051247845 -0.45401832 0.3857724 -0.15755147 0.6391023 0.6116807 0.44424278
-0.051611 0.29275683 -0.36123767 -0.12510067 0.43460077 -0.5366142 0.6077658 0.6808284
0.22698975 0.25808674 0.043030947 -0.30770412 0.21413046 -0.30605516 0.060089346 0.119077384
00000000: 5961 21bf f2ee f23e da70 8abe b421 8b3e
00000010: 9d0a 213f ba93 d9be 6b57 7a3e d4b7 f3bd
00000020: b09e 00bd 4e51 f8be 4e12 893e 8e9c a43e
00000030: 5cd8 54bd 56bf 77bc 41c1 233f 6748 313f
00000040: 30b7 4d3d b7f8 03bf 8c5b 103e 2413 0e3e
00000050: 6f36 d23c 2bd0 98bd 5c6b 06bf 955e 7fbe
00000060: 881e 12bf d43c 343f a0e0 08bf 1471 62be
00000070: e4c9 c9be 2a4c 9fbe 722b febd e4cf d5be
00000080: 5e29 06bf 0d77 9fbe 028d 0a3f 4f79 803e
00000090: 783a 983d 1016 afbe 3647 3fbd e1fd 4cbd
000000a0: 082e a83e cfed a73b 1775 e8be f683 c53e
000000b0: 2c55 21be 359c 233f 1b97 1c3f ca73 e33e
000000c0: 0e66 53bd 39e4 953e 25f4 b8be 641a 00be
000000d0: fe83 de3e 8c5f 09bf 8a96 1b3f c54a 2e3f
000000e0: 0070 683e f223 843e 3841 303d 658b 9dbe
000000f0: 0445 5b3e 43b3 9cbe 3f20 763d d8de f33d

fc1.bias f4 [32]
0.05682746 -0.050942756 0.08200216 0.586366 -0.31537214 -0.020387948 0.64799917 -0.40759054
-0.40425614 -0.5877995 0.5227801 0.5654263 -0.23810145 -0.612815 -0.13075405 0.22428319
-0.6460472 0.1942389 -0.25508004 0.2720831 0.445776 -0.5439674 -0.50252664 -0.13319981
0.6683622 -0.4513774 0.113766134 0.5228949 0.016056597 0.54360145 -0.15082943 0.08557884
00000000: e9c3 683d 5aa9 50bd c0f0 a73d 151c 163f
00000010: 7578 a1be a004 a7bc 46e3 253f b5af d0be
00000020: a9fa cebe 077a 16bf ebd4 053f c7bf 103f
00000030: ded0 73be 72e1 1cbf 64e4 05be 7eaa 653e
00000040: 5963 25bf 90e6 463e da99 82be 7a4e 8b3e
00000050: c03c e43e 7341 0bbf 96a5 00bf 8865 08be
00000060: c919 2b3f f01a e7be 38fe e83d 71dc 053f
00000070: 2089 833c 7729 0b3f 0873 1abe f543 af3d

fc2.weight f4 [3, 32]
0.099831395 -0.14639564 -0.014427692 -0.07048469 0.1598364 0.13307302 -0.16756414 0.004780397
0.039409027 0.12676011 -0.17411643 -0.042370256 -0.0225818 -0.096933745 -0.12940551 0.030419705
-0.122205965 0.048224013 -0.05335839 -0.06871361 0.14910926 0.075653896 0.13205712 0.04881364
-0.119341165 0.1542357 0.1511649 0.006837883 0.16954355 0.078053065 0.1091996 -0.16679409
-0.14924113 -0.024637965 -0.03436923 -0.12714323 -0.13086551 0.046456948 0.06714144 -0.08660836
-0.1473382 0.073035285 -0.13719007 0.043263324 -0.038465064 0.15838839 -0.14039287 -0.059543066
-0.13915503 0.12183747 -0.022562087 -0.008202167 0.17095195 -0.009453714 0.022957638 0.115147784
-0.030789444 -0.10932624 0.016684815 0.17915143 -0.17066406 0.01784662 -0.048717543 0.14682654
-0.07727683 -0.11248926 0.013622016 -0.1574848 -0.06277592 -0.0031571537 -0.16389233 0.069796234
-0.16747718 0.104770884 0.019136656 -0.16726217 0.053757194 0.1721587 -0.15081581 -0.039185278
-0.10849574 0.1131433 -0.109800085 -0.0012369691 0.12177809 -0.09765486 0.08626135 0.02776128
0.10085131 0.10109143 -0.011254072 -0.0035460587 0.1373597 -0.06358779 0.166927 -0.17893876
00000000: 6774 cc3d bde8 15be 2062 6cbc 475a 90bd
00000010: 27ac 233e 4b44 083e ef95 2bbe e0a4 9c3b
00000020: 5c6b 213d 67cd 013e 944b 32be 6f8c 2dbd
00000030: 78fd b8bc 3385 c6bd e182 04be bf32 f93c
00000040: 1f47 fabd 8b86 453d 548e 5abd b9b9 8cbd
00000050: 19b0 183e 6ef0 9a3d fb39 073e d0f0 473d
00000060: 2469 f4bd f7ef 1d3e f9ca 1a3e 5210 e03b
00000070: d39c 2d3e 49da 9f3d 0aa4 df3d 12cc 2abe
00000080: abd2 18be 8fd5 c9bc c0c6 0cbd d631 02be
00000090: 9c01 06be a449 3e3d 7481 893d b95f b1bd
000000a0: d3df 16be 8693 953d 8e7b 0cbe e234 313d
000000b0: 8b8d 1dbd 9130 223e 26c3 0fbe 6ee3 73bd
000000c0: a87e 0ebe ec85 f93d 20d4 b8bc 6262 06bc
000000d0: 070e 2f3e c0e3 1abc a811 bc3c 9ad2 eb3d
000000e0: 253a fcbc 70e6 dfbd 98ae 883c 7973 373e
000000f0: 8fc2 2ebe 1333 923c 0c8c 47bd b259 163e
00000100: 5143 9ebd c560 e6bd e02e 5f3c b243 21be
00000110: a990 80bd 40e8 4ebb 64d3 27be 54f1 8e3d
00000120: 237f 2bbe 1e92 d63d 7ac4 9c3c c646 2bbe
00000130: 8130 5c3d 5f4a 303e 766f 1abe be80 20bd
00000140: 0433 debd adb7 e73d dede e0bd cc21 a2ba
00000150: cb66 f93d 45ff c7bd caa9 b03d a06b e33c
00000160: 228b ce3d 0609 cf3d 0063 38bc fe64 68bb
00000170: 05a8 0c3e 513a 82bd e9ee 2a3e b93b 37be

fc2.bias f4 [3]
0.071008354 0.10628162 -0.17585364
00000000: d46c 913d 2eaa d93d fa12 34be
